{"format": "graph-model", "generatedBy": "2.16.2", "convertedBy": "TensorFlow.js Converter v3.18.0", "signature": {"inputs": {"global_inputs": {"name": "swa_model/global_inputs:0", "dtype": "DT_FLOAT", "tensorShape": {"dim": [{"size": "-1"}, {"size": "19"}]}}, "bin_inputs": {"name": "swa_model/bin_inputs:0", "dtype": "DT_FLOAT", "tensorShape": {"dim": [{"size": "-1"}, {"size": "361"}, {"size": "22"}]}}}, "outputs": {"policy_output": {"name": "swa_model/policy_output:0", "dtype": "DT_FLOAT", "tensorShape": {"dim": [{"size": "-1"}, {"size": "362"}, {"size": "2"}]}}, "value_output": {"name": "swa_model/value_output:0", "dtype": "DT_FLOAT", "tensorShape": {"dim": [{"size": "-1"}, {"size": "3"}]}}, "miscvalues_output": {"name": "swa_model/miscvalues_output:0", "dtype": "DT_FLOAT", "tensorShape": {"dim": [{"size": "-1"}, {"size": "10"}]}}, "ownership_output": {"name": "swa_model/ownership_output:0", "dtype": "DT_FLOAT", "tensorShape": {"dim": [{"size": "-1"}, {"size": "19"}, {"size": "19"}]}}}}, "modelTopology": {"node": [{"name": "swa_model/mv3/w", "op": "Const", "attr": {"value": {"tensor": {"dtype": "DT_FLOAT", "tensorShape": {"dim": [{"size": "80"}, {"size": "10"}]}}}, "dtype": {"type": "DT_FLOAT"}}}, {"name": "swa_model/mv3/b", "op": "Const", "attr": {"value": {"tensor": {"dtype": "DT_FLOAT", "tensorShape": {"dim": [{"size": "10"}]}}}, "dtype": {"type": "DT_FLOAT"}}}, {"name": "swa_model/miscvalues_output/shape", "op": "Const", "attr": {"value": {"tensor": {"dtype": "DT_INT32", "tensorShape": {"dim": [{"size": "2"}]}}}, "dtype": {"type": "DT_INT32"}}}, {"name": "swa_model/vownership/w", "op": "Const", "attr": {"value": {"tensor": {"dtype": "DT_FLOAT", "tensorShape": {"dim": [{"size": "1"}, {"size": "1"}, {"size": "32"}, {"size": "1"}]}}}, "dtype": {"type": "DT_FLOAT"}}}, {"name": "swa_model/strided_slice_11", "op": "Const", "attr": {"value": {"tensor": {"dtype": "DT_BOOL", "tensorShape": {}}}, "dtype": {"type": "DT_BOOL"}}}, {"name": "swa_model/strided_slice_9", "op": "Const", "attr": {"value": {"tensor": {"dtype": "DT_BOOL", "tensorShape": {}}}, "dtype": {"type": "DT_BOOL"}}}, {"name": "swa_model/strided_slice_10", "op": "Const", "attr": {"value": {"tensor": {"dtype": "DT_BOOL", "tensorShape": {}}}, "dtype": {"type": "DT_BOOL"}}}, {"name": "swa_model/ownership_output/shape", "op": "Const", "attr": {"value": {"tensor": {"dtype": "DT_INT32", "tensorShape": {"dim": [{"size": "3"}]}}}, "dtype": {"type": "DT_INT32"}}}, {"name": "swa_model/p1/intermediate_conv/w", "op": "Const", "attr": {"value": {"tensor": {"dtype": "DT_FLOAT", "tensorShape": {"dim": [{"size": "1"}, {"size": "1"}, {"size": "128"}, {"size": "32"}]}}}, "dtype": {"type": "DT_FLOAT"}}}, {"name": "swa_model/p1/norm/beta", "op": "Const", "attr": {"value": {"tensor": {"dtype": "DT_FLOAT", "tensorShape": {"dim": [{"size": "32"}]}}}, "dtype": {"type": "DT_FLOAT"}}}, {"name": "swa_model/Tensordot_4/Const", "op": "Const", "attr": {"value": {"tensor": {"dtype": "DT_INT32", "tensorShape": {"dim": [{"size": "1"}]}}}, "dtype": {"type": "DT_INT32"}}}, {"name": "swa_model/Tensordot_4/axes", "op": "Const", "attr": {"value": {"tensor": {"dtype": "DT_INT32", "tensorShape": {"dim": [{"size": "1"}]}}}, "dtype": {"type": "DT_INT32"}}}, {"name": "swa_model/Tensordot_4/GatherV2_1/axis", "op": "Const", "attr": {"value": {"tensor": {"dtype": "DT_INT32", "tensorShape": {}}}, "dtype": {"type": "DT_INT32"}}}, {"name": "swa_model/Tensordot_4/Const_1", "op": "Const", "attr": {"value": {"tensor": {"dtype": "DT_INT32", "tensorShape": {"dim": [{"size": "1"}]}}}, "dtype": {"type": "DT_INT32"}}}, {"name": "swa_model/matmulg2w", "op": "Const", "attr": {"value": {"tensor": {"dtype": "DT_FLOAT", "tensorShape": {"dim": [{"size": "96"}, {"size": "32"}]}}}, "dtype": {"type": "DT_FLOAT"}}}, {"name": "swa_model/Tensordot_4/free", "op": "Const", "attr": {"value": {"tensor": {"dtype": "DT_INT32", "tensorShape": {"dim": [{"size": "3"}]}}}, "dtype": {"type": "DT_INT32"}}}, {"name": "swa_model/Tensordot_4/GatherV2/axis", "op": "Const", "attr": {"value": {"tensor": {"dtype": "DT_INT32", "tensorShape": {}}}, "dtype": {"type": "DT_INT32"}}}, {"name": "swa_model/Tensordot_4/Const_2", "op": "Const", "attr": {"value": {"tensor": {"dtype": "DT_INT32", "tensorShape": {"dim": [{"size": "1"}]}}}, "dtype": {"type": "DT_INT32"}}}, {"name": "swa_model/Tensordot_4/concat_1/axis", "op": "Const", "attr": {"value": {"tensor": {"dtype": "DT_INT32", "tensorShape": {}}}, "dtype": {"type": "DT_INT32"}}}, {"name": "swa_model/p2/w", "op": "Const", "attr": {"value": {"tensor": {"dtype": "DT_FLOAT", "tensorShape": {"dim": [{"size": "1"}, {"size": "1"}, {"size": "32"}, {"size": "2"}]}}}, "dtype": {"type": "DT_FLOAT"}}}, {"name": "swa_model/sub_3/x", "op": "Const", "attr": {"value": {"tensor": {"dtype": "DT_FLOAT", "tensorShape": {}}}, "dtype": {"type": "DT_FLOAT"}}}, {"name": "swa_model/mul_69/y", "op": "Const", "attr": {"value": {"tensor": {"dtype": "DT_FLOAT", "tensorShape": {}}}, "dtype": {"type": "DT_FLOAT"}}}, {"name": "swa_model/strided_slice_7", "op": "Const", "attr": {"value": {"tensor": {"dtype": "DT_BOOL", "tensorShape": {}}}, "dtype": {"type": "DT_BOOL"}}}, {"name": "swa_model/strided_slice_5", "op": "Const", "attr": {"value": {"tensor": {"dtype": "DT_BOOL", "tensorShape": {}}}, "dtype": {"type": "DT_BOOL"}}}, {"name": "swa_model/strided_slice_6", "op": "Const", "attr": {"value": {"tensor": {"dtype": "DT_BOOL", "tensorShape": {}}}, "dtype": {"type": "DT_BOOL"}}}, {"name": "swa_model/Reshape_11/shape", "op": "Const", "attr": {"value": {"tensor": {"dtype": "DT_INT32", "tensorShape": {"dim": [{"size": "3"}]}}}, "dtype": {"type": "DT_INT32"}}}, {"name": "swa_model/Tensordot_5/free", "op": "Const", "attr": {"value": {"tensor": {"dtype": "DT_INT32", "tensorShape": {"dim": [{"size": "3"}]}}}, "dtype": {"type": "DT_INT32"}}}, {"name": "swa_model/Tensordot_5/GatherV2/axis", "op": "Const", "attr": {"value": {"tensor": {"dtype": "DT_INT32", "tensorShape": {}}}, "dtype": {"type": "DT_INT32"}}}, {"name": "swa_model/Tensordot_5/Const", "op": "Const", "attr": {"value": {"tensor": {"dtype": "DT_INT32", "tensorShape": {"dim": [{"size": "1"}]}}}, "dtype": {"type": "DT_INT32"}}}, {"name": "swa_model/Sum_4/reduction_indices", "op": "Const", "attr": {"value": {"tensor": {"dtype": "DT_INT32", "tensorShape": {"dim": [{"size": "2"}]}}}, "dtype": {"type": "DT_INT32"}}}, {"name": "swa_model/Reshape_9/shape", "op": "Const", "attr": {"value": {"tensor": {"dtype": "DT_INT32", "tensorShape": {"dim": [{"size": "4"}]}}}, "dtype": {"type": "DT_INT32"}}}, {"name": "swa_model/Reshape_10/shape", "op": "Const", "attr": {"value": {"tensor": {"dtype": "DT_INT32", "tensorShape": {"dim": [{"size": "4"}]}}}, "dtype": {"type": "DT_INT32"}}}, {"name": "swa_model/sub_2/y", "op": "Const", "attr": {"value": {"tensor": {"dtype": "DT_FLOAT", "tensorShape": {}}}, "dtype": {"type": "DT_FLOAT"}}}, {"name": "ConstantFolding/swa_model/truediv_5_recip", "op": "Const", "attr": {"value": {"tensor": {"dtype": "DT_FLOAT", "tensorShape": {}}}, "dtype": {"type": "DT_FLOAT"}}}, {"name": "swa_model/g1/w", "op": "Const", "attr": {"value": {"tensor": {"dtype": "DT_FLOAT", "tensorShape": {"dim": [{"size": "1"}, {"size": "1"}, {"size": "128"}, {"size": "32"}]}}}, "dtype": {"type": "DT_FLOAT"}}}, {"name": "swa_model/g1/norm/beta", "op": "Const", "attr": {"value": {"tensor": {"dtype": "DT_FLOAT", "tensorShape": {"dim": [{"size": "32"}]}}}, "dtype": {"type": "DT_FLOAT"}}}, {"name": "swa_model/Max_2/reduction_indices", "op": "Const", "attr": {"value": {"tensor": {"dtype": "DT_INT32", "tensorShape": {"dim": [{"size": "2"}]}}}, "dtype": {"type": "DT_INT32"}}}, {"name": "swa_model/concat_2/axis", "op": "Const", "attr": {"value": {"tensor": {"dtype": "DT_INT32", "tensorShape": {}}}, "dtype": {"type": "DT_INT32"}}}, {"name": "swa_model/Tensordot_5/axes", "op": "Const", "attr": {"value": {"tensor": {"dtype": "DT_INT32", "tensorShape": {"dim": [{"size": "1"}]}}}, "dtype": {"type": "DT_INT32"}}}, {"name": "swa_model/Tensordot_5/GatherV2_1/axis", "op": "Const", "attr": {"value": {"tensor": {"dtype": "DT_INT32", "tensorShape": {}}}, "dtype": {"type": "DT_INT32"}}}, {"name": "swa_model/Tensordot_5/Const_1", "op": "Const", "attr": {"value": {"tensor": {"dtype": "DT_INT32", "tensorShape": {"dim": [{"size": "1"}]}}}, "dtype": {"type": "DT_INT32"}}}, {"name": "swa_model/matmulpass", "op": "Const", "attr": {"value": {"tensor": {"dtype": "DT_FLOAT", "tensorShape": {"dim": [{"size": "96"}, {"size": "2"}]}}}, "dtype": {"type": "DT_FLOAT"}}}, {"name": "swa_model/Reshape_12/shape", "op": "Const", "attr": {"value": {"tensor": {"dtype": "DT_INT32", "tensorShape": {"dim": [{"size": "3"}]}}}, "dtype": {"type": "DT_INT32"}}}, {"name": "swa_model/policy_output/axis", "op": "Const", "attr": {"value": {"tensor": {"dtype": "DT_INT32", "tensorShape": {}}}, "dtype": {"type": "DT_INT32"}}}, {"name": "swa_model/sub_5/y", "op": "Const", "attr": {"value": {"tensor": {"dtype": "DT_FLOAT", "tensorShape": {}}}, "dtype": {"type": "DT_FLOAT"}}}, {"name": "ConstantFolding/swa_model/truediv_7_recip", "op": "Const", "attr": {"value": {"tensor": {"dtype": "DT_FLOAT", "tensorShape": {}}}, "dtype": {"type": "DT_FLOAT"}}}, {"name": "swa_model/trunk/norm/beta", "op": "Const", "attr": {"value": {"tensor": {"dtype": "DT_FLOAT", "tensorShape": {"dim": [{"size": "128"}]}}}, "dtype": {"type": "DT_FLOAT"}}}, {"name": "swa_model/rconv8/w1a", "op": "Const", "attr": {"value": {"tensor": {"dtype": "DT_FLOAT", "tensorShape": {"dim": [{"size": "3"}, {"size": "3"}, {"size": "128"}, {"size": "96"}]}}}, "dtype": {"type": "DT_FLOAT"}}}, {"name": "swa_model/Tensordot_3/Const", "op": "Const", "attr": {"value": {"tensor": {"dtype": "DT_INT32", "tensorShape": {"dim": [{"size": "1"}]}}}, "dtype": {"type": "DT_INT32"}}}, {"name": "swa_model/Tensordot_3/axes", "op": "Const", "attr": {"value": {"tensor": {"dtype": "DT_INT32", "tensorShape": {"dim": [{"size": "1"}]}}}, "dtype": {"type": "DT_INT32"}}}, {"name": "swa_model/Tensordot_3/GatherV2_1/axis", "op": "Const", "attr": {"value": {"tensor": {"dtype": "DT_INT32", "tensorShape": {}}}, "dtype": {"type": "DT_INT32"}}}, {"name": "swa_model/Tensordot_3/Const_1", "op": "Const", "attr": {"value": {"tensor": {"dtype": "DT_INT32", "tensorShape": {"dim": [{"size": "1"}]}}}, "dtype": {"type": "DT_INT32"}}}, {"name": "swa_model/rconv8/w1r", "op": "Const", "attr": {"value": {"tensor": {"dtype": "DT_FLOAT", "tensorShape": {"dim": [{"size": "96"}, {"size": "96"}]}}}, "dtype": {"type": "DT_FLOAT"}}}, {"name": "swa_model/Sum_3/reduction_indices", "op": "Const", "attr": {"value": {"tensor": {"dtype": "DT_INT32", "tensorShape": {"dim": [{"size": "2"}]}}}, "dtype": {"type": "DT_INT32"}}}, {"name": "swa_model/Reshape_7/shape", "op": "Const", "attr": {"value": {"tensor": {"dtype": "DT_INT32", "tensorShape": {"dim": [{"size": "4"}]}}}, "dtype": {"type": "DT_INT32"}}}, {"name": "swa_model/Reshape_8/shape", "op": "Const", "attr": {"value": {"tensor": {"dtype": "DT_INT32", "tensorShape": {"dim": [{"size": "4"}]}}}, "dtype": {"type": "DT_INT32"}}}, {"name": "swa_model/sub_1/y", "op": "Const", "attr": {"value": {"tensor": {"dtype": "DT_FLOAT", "tensorShape": {}}}, "dtype": {"type": "DT_FLOAT"}}}, {"name": "ConstantFolding/swa_model/truediv_3_recip", "op": "Const", "attr": {"value": {"tensor": {"dtype": "DT_FLOAT", "tensorShape": {}}}, "dtype": {"type": "DT_FLOAT"}}}, {"name": "swa_model/rconv5/w1a", "op": "Const", "attr": {"value": {"tensor": {"dtype": "DT_FLOAT", "tensorShape": {"dim": [{"size": "3"}, {"size": "3"}, {"size": "128"}, {"size": "96"}]}}}, "dtype": {"type": "DT_FLOAT"}}}, {"name": "swa_model/Tensordot_2/Const", "op": "Const", "attr": {"value": {"tensor": {"dtype": "DT_INT32", "tensorShape": {"dim": [{"size": "1"}]}}}, "dtype": {"type": "DT_INT32"}}}, {"name": "swa_model/Tensordot_2/axes", "op": "Const", "attr": {"value": {"tensor": {"dtype": "DT_INT32", "tensorShape": {"dim": [{"size": "1"}]}}}, "dtype": {"type": "DT_INT32"}}}, {"name": "swa_model/Tensordot_2/GatherV2_1/axis", "op": "Const", "attr": {"value": {"tensor": {"dtype": "DT_INT32", "tensorShape": {}}}, "dtype": {"type": "DT_INT32"}}}, {"name": "swa_model/Tensordot_2/Const_1", "op": "Const", "attr": {"value": {"tensor": {"dtype": "DT_INT32", "tensorShape": {"dim": [{"size": "1"}]}}}, "dtype": {"type": "DT_INT32"}}}, {"name": "swa_model/rconv5/w1r", "op": "Const", "attr": {"value": {"tensor": {"dtype": "DT_FLOAT", "tensorShape": {"dim": [{"size": "96"}, {"size": "96"}]}}}, "dtype": {"type": "DT_FLOAT"}}}, {"name": "swa_model/Sum_2/reduction_indices", "op": "Const", "attr": {"value": {"tensor": {"dtype": "DT_INT32", "tensorShape": {"dim": [{"size": "2"}]}}}, "dtype": {"type": "DT_INT32"}}}, {"name": "swa_model/Reshape_5/shape", "op": "Const", "attr": {"value": {"tensor": {"dtype": "DT_INT32", "tensorShape": {"dim": [{"size": "4"}]}}}, "dtype": {"type": "DT_INT32"}}}, {"name": "swa_model/Reshape_6/shape", "op": "Const", "attr": {"value": {"tensor": {"dtype": "DT_INT32", "tensorShape": {"dim": [{"size": "4"}]}}}, "dtype": {"type": "DT_INT32"}}}, {"name": "swa_model/sub/y", "op": "Const", "attr": {"value": {"tensor": {"dtype": "DT_FLOAT", "tensorShape": {}}}, "dtype": {"type": "DT_FLOAT"}}}, {"name": "ConstantFolding/swa_model/truediv_1_recip", "op": "Const", "attr": {"value": {"tensor": {"dtype": "DT_FLOAT", "tensorShape": {}}}, "dtype": {"type": "DT_FLOAT"}}}, {"name": "swa_model/conv1/w", "op": "Const", "attr": {"value": {"tensor": {"dtype": "DT_FLOAT", "tensorShape": {"dim": [{"size": "5"}, {"size": "5"}, {"size": "22"}, {"size": "128"}]}}}, "dtype": {"type": "DT_FLOAT"}}}, {"name": "swa_model/Tensordot_1/free", "op": "Const", "attr": {"value": {"tensor": {"dtype": "DT_INT32", "tensorShape": {"dim": [{"size": "1"}]}}}, "dtype": {"type": "DT_INT32"}}}, {"name": "swa_model/Tensordot_1/GatherV2/axis", "op": "Const", "attr": {"value": {"tensor": {"dtype": "DT_INT32", "tensorShape": {}}}, "dtype": {"type": "DT_INT32"}}}, {"name": "swa_model/Tensordot_1/Const", "op": "Const", "attr": {"value": {"tensor": {"dtype": "DT_INT32", "tensorShape": {"dim": [{"size": "1"}]}}}, "dtype": {"type": "DT_INT32"}}}, {"name": "swa_model/global_inputs", "op": "Placeholder", "attr": {"shape": {"shape": {"dim": [{"size": "-1"}, {"size": "19"}]}}, "dtype": {"type": "DT_FLOAT"}}}, {"name": "swa_model/PadV2", "op": "Const", "attr": {"value": {"tensor": {"dtype": "DT_FLOAT", "tensorShape": {"dim": [{"size": "1"}, {"size": "19"}]}}}, "dtype": {"type": "DT_FLOAT"}}}, {"name": "swa_model/Tensordot_1/axes", "op": "Const", "attr": {"value": {"tensor": {"dtype": "DT_INT32", "tensorShape": {"dim": [{"size": "1"}]}}}, "dtype": {"type": "DT_INT32"}}}, {"name": "swa_model/Tensordot_1/GatherV2_1/axis", "op": "Const", "attr": {"value": {"tensor": {"dtype": "DT_INT32", "tensorShape": {}}}, "dtype": {"type": "DT_INT32"}}}, {"name": "swa_model/Tensordot_1/Const_1", "op": "Const", "attr": {"value": {"tensor": {"dtype": "DT_INT32", "tensorShape": {"dim": [{"size": "1"}]}}}, "dtype": {"type": "DT_INT32"}}}, {"name": "swa_model/ginputw", "op": "Const", "attr": {"value": {"tensor": {"dtype": "DT_FLOAT", "tensorShape": {"dim": [{"size": "19"}, {"size": "128"}]}}}, "dtype": {"type": "DT_FLOAT"}}}, {"name": "swa_model/Reshape_4/shape", "op": "Const", "attr": {"value": {"tensor": {"dtype": "DT_INT32", "tensorShape": {"dim": [{"size": "4"}]}}}, "dtype": {"type": "DT_INT32"}}}, {"name": "swa_model/rconv1/norm1/beta", "op": "Const", "attr": {"value": {"tensor": {"dtype": "DT_FLOAT", "tensorShape": {"dim": [{"size": "128"}]}}}, "dtype": {"type": "DT_FLOAT"}}}, {"name": "swa_model/Conv2D_1/merged_input", "op": "Const", "attr": {"value": {"tensor": {"dtype": "DT_FLOAT", "tensorShape": {"dim": [{"size": "3"}, {"size": "3"}, {"size": "128"}, {"size": "128"}]}}}, "dtype": {"type": "DT_FLOAT"}}}, {"name": "swa_model/rconv1/norm2/beta", "op": "Const", "attr": {"value": {"tensor": {"dtype": "DT_FLOAT", "tensorShape": {"dim": [{"size": "128"}]}}}, "dtype": {"type": "DT_FLOAT"}}}, {"name": "swa_model/rconv1/w2", "op": "Const", "attr": {"value": {"tensor": {"dtype": "DT_FLOAT", "tensorShape": {"dim": [{"size": "3"}, {"size": "3"}, {"size": "128"}, {"size": "128"}]}}}, "dtype": {"type": "DT_FLOAT"}}}, {"name": "swa_model/rconv2/norm1/beta", "op": "Const", "attr": {"value": {"tensor": {"dtype": "DT_FLOAT", "tensorShape": {"dim": [{"size": "128"}]}}}, "dtype": {"type": "DT_FLOAT"}}}, {"name": "swa_model/Conv2D_3/merged_input", "op": "Const", "attr": {"value": {"tensor": {"dtype": "DT_FLOAT", "tensorShape": {"dim": [{"size": "3"}, {"size": "3"}, {"size": "128"}, {"size": "128"}]}}}, "dtype": {"type": "DT_FLOAT"}}}, {"name": "swa_model/rconv2/norm2/beta", "op": "Const", "attr": {"value": {"tensor": {"dtype": "DT_FLOAT", "tensorShape": {"dim": [{"size": "128"}]}}}, "dtype": {"type": "DT_FLOAT"}}}, {"name": "swa_model/rconv2/w2", "op": "Const", "attr": {"value": {"tensor": {"dtype": "DT_FLOAT", "tensorShape": {"dim": [{"size": "3"}, {"size": "3"}, {"size": "128"}, {"size": "128"}]}}}, "dtype": {"type": "DT_FLOAT"}}}, {"name": "swa_model/rconv3/norm1/beta", "op": "Const", "attr": {"value": {"tensor": {"dtype": "DT_FLOAT", "tensorShape": {"dim": [{"size": "128"}]}}}, "dtype": {"type": "DT_FLOAT"}}}, {"name": "swa_model/Conv2D_5/merged_input", "op": "Const", "attr": {"value": {"tensor": {"dtype": "DT_FLOAT", "tensorShape": {"dim": [{"size": "3"}, {"size": "3"}, {"size": "128"}, {"size": "128"}]}}}, "dtype": {"type": "DT_FLOAT"}}}, {"name": "swa_model/rconv3/norm2/beta", "op": "Const", "attr": {"value": {"tensor": {"dtype": "DT_FLOAT", "tensorShape": {"dim": [{"size": "128"}]}}}, "dtype": {"type": "DT_FLOAT"}}}, {"name": "swa_model/rconv3/w2", "op": "Const", "attr": {"value": {"tensor": {"dtype": "DT_FLOAT", "tensorShape": {"dim": [{"size": "3"}, {"size": "3"}, {"size": "128"}, {"size": "128"}]}}}, "dtype": {"type": "DT_FLOAT"}}}, {"name": "swa_model/rconv4/norm1/beta", "op": "Const", "attr": {"value": {"tensor": {"dtype": "DT_FLOAT", "tensorShape": {"dim": [{"size": "128"}]}}}, "dtype": {"type": "DT_FLOAT"}}}, {"name": "swa_model/Conv2D_7/merged_input", "op": "Const", "attr": {"value": {"tensor": {"dtype": "DT_FLOAT", "tensorShape": {"dim": [{"size": "3"}, {"size": "3"}, {"size": "128"}, {"size": "128"}]}}}, "dtype": {"type": "DT_FLOAT"}}}, {"name": "swa_model/rconv4/norm2/beta", "op": "Const", "attr": {"value": {"tensor": {"dtype": "DT_FLOAT", "tensorShape": {"dim": [{"size": "128"}]}}}, "dtype": {"type": "DT_FLOAT"}}}, {"name": "swa_model/rconv4/w2", "op": "Const", "attr": {"value": {"tensor": {"dtype": "DT_FLOAT", "tensorShape": {"dim": [{"size": "3"}, {"size": "3"}, {"size": "128"}, {"size": "128"}]}}}, "dtype": {"type": "DT_FLOAT"}}}, {"name": "swa_model/rconv5/norm1/beta", "op": "Const", "attr": {"value": {"tensor": {"dtype": "DT_FLOAT", "tensorShape": {"dim": [{"size": "128"}]}}}, "dtype": {"type": "DT_FLOAT"}}}, {"name": "swa_model/rconv5/w1b", "op": "Const", "attr": {"value": {"tensor": {"dtype": "DT_FLOAT", "tensorShape": {"dim": [{"size": "3"}, {"size": "3"}, {"size": "128"}, {"size": "32"}]}}}, "dtype": {"type": "DT_FLOAT"}}}, {"name": "swa_model/rconv5/norm1b/beta", "op": "Const", "attr": {"value": {"tensor": {"dtype": "DT_FLOAT", "tensorShape": {"dim": [{"size": "32"}]}}}, "dtype": {"type": "DT_FLOAT"}}}, {"name": "swa_model/Max/reduction_indices", "op": "Const", "attr": {"value": {"tensor": {"dtype": "DT_INT32", "tensorShape": {"dim": [{"size": "2"}]}}}, "dtype": {"type": "DT_INT32"}}}, {"name": "swa_model/concat/axis", "op": "Const", "attr": {"value": {"tensor": {"dtype": "DT_INT32", "tensorShape": {}}}, "dtype": {"type": "DT_INT32"}}}, {"name": "swa_model/Tensordot_2/free", "op": "Const", "attr": {"value": {"tensor": {"dtype": "DT_INT32", "tensorShape": {"dim": [{"size": "3"}]}}}, "dtype": {"type": "DT_INT32"}}}, {"name": "swa_model/Tensordot_2/GatherV2/axis", "op": "Const", "attr": {"value": {"tensor": {"dtype": "DT_INT32", "tensorShape": {}}}, "dtype": {"type": "DT_INT32"}}}, {"name": "swa_model/Tensordot_2/Const_2", "op": "Const", "attr": {"value": {"tensor": {"dtype": "DT_INT32", "tensorShape": {"dim": [{"size": "1"}]}}}, "dtype": {"type": "DT_INT32"}}}, {"name": "swa_model/Tensordot_2/concat_1/axis", "op": "Const", "attr": {"value": {"tensor": {"dtype": "DT_INT32", "tensorShape": {}}}, "dtype": {"type": "DT_INT32"}}}, {"name": "swa_model/rconv5/norm2/gamma", "op": "Const", "attr": {"value": {"tensor": {"dtype": "DT_FLOAT", "tensorShape": {"dim": [{"size": "96"}]}}}, "dtype": {"type": "DT_FLOAT"}}}, {"name": "swa_model/rconv5/norm2/beta", "op": "Const", "attr": {"value": {"tensor": {"dtype": "DT_FLOAT", "tensorShape": {"dim": [{"size": "96"}]}}}, "dtype": {"type": "DT_FLOAT"}}}, {"name": "swa_model/rconv5/w2", "op": "Const", "attr": {"value": {"tensor": {"dtype": "DT_FLOAT", "tensorShape": {"dim": [{"size": "3"}, {"size": "3"}, {"size": "96"}, {"size": "128"}]}}}, "dtype": {"type": "DT_FLOAT"}}}, {"name": "swa_model/rconv6/norm1/beta", "op": "Const", "attr": {"value": {"tensor": {"dtype": "DT_FLOAT", "tensorShape": {"dim": [{"size": "128"}]}}}, "dtype": {"type": "DT_FLOAT"}}}, {"name": "swa_model/Conv2D_12/merged_input", "op": "Const", "attr": {"value": {"tensor": {"dtype": "DT_FLOAT", "tensorShape": {"dim": [{"size": "3"}, {"size": "3"}, {"size": "128"}, {"size": "128"}]}}}, "dtype": {"type": "DT_FLOAT"}}}, {"name": "swa_model/rconv6/norm2/beta", "op": "Const", "attr": {"value": {"tensor": {"dtype": "DT_FLOAT", "tensorShape": {"dim": [{"size": "128"}]}}}, "dtype": {"type": "DT_FLOAT"}}}, {"name": "swa_model/rconv6/w2", "op": "Const", "attr": {"value": {"tensor": {"dtype": "DT_FLOAT", "tensorShape": {"dim": [{"size": "3"}, {"size": "3"}, {"size": "128"}, {"size": "128"}]}}}, "dtype": {"type": "DT_FLOAT"}}}, {"name": "swa_model/rconv7/norm1/beta", "op": "Const", "attr": {"value": {"tensor": {"dtype": "DT_FLOAT", "tensorShape": {"dim": [{"size": "128"}]}}}, "dtype": {"type": "DT_FLOAT"}}}, {"name": "swa_model/Conv2D_14/merged_input", "op": "Const", "attr": {"value": {"tensor": {"dtype": "DT_FLOAT", "tensorShape": {"dim": [{"size": "3"}, {"size": "3"}, {"size": "128"}, {"size": "128"}]}}}, "dtype": {"type": "DT_FLOAT"}}}, {"name": "swa_model/rconv7/norm2/beta", "op": "Const", "attr": {"value": {"tensor": {"dtype": "DT_FLOAT", "tensorShape": {"dim": [{"size": "128"}]}}}, "dtype": {"type": "DT_FLOAT"}}}, {"name": "swa_model/rconv7/w2", "op": "Const", "attr": {"value": {"tensor": {"dtype": "DT_FLOAT", "tensorShape": {"dim": [{"size": "3"}, {"size": "3"}, {"size": "128"}, {"size": "128"}]}}}, "dtype": {"type": "DT_FLOAT"}}}, {"name": "swa_model/rconv8/norm1/beta", "op": "Const", "attr": {"value": {"tensor": {"dtype": "DT_FLOAT", "tensorShape": {"dim": [{"size": "128"}]}}}, "dtype": {"type": "DT_FLOAT"}}}, {"name": "swa_model/rconv8/w1b", "op": "Const", "attr": {"value": {"tensor": {"dtype": "DT_FLOAT", "tensorShape": {"dim": [{"size": "3"}, {"size": "3"}, {"size": "128"}, {"size": "32"}]}}}, "dtype": {"type": "DT_FLOAT"}}}, {"name": "swa_model/rconv8/norm1b/beta", "op": "Const", "attr": {"value": {"tensor": {"dtype": "DT_FLOAT", "tensorShape": {"dim": [{"size": "32"}]}}}, "dtype": {"type": "DT_FLOAT"}}}, {"name": "swa_model/Max_1/reduction_indices", "op": "Const", "attr": {"value": {"tensor": {"dtype": "DT_INT32", "tensorShape": {"dim": [{"size": "2"}]}}}, "dtype": {"type": "DT_INT32"}}}, {"name": "swa_model/concat_1/axis", "op": "Const", "attr": {"value": {"tensor": {"dtype": "DT_INT32", "tensorShape": {}}}, "dtype": {"type": "DT_INT32"}}}, {"name": "swa_model/Tensordot_3/free", "op": "Const", "attr": {"value": {"tensor": {"dtype": "DT_INT32", "tensorShape": {"dim": [{"size": "3"}]}}}, "dtype": {"type": "DT_INT32"}}}, {"name": "swa_model/Tensordot_3/GatherV2/axis", "op": "Const", "attr": {"value": {"tensor": {"dtype": "DT_INT32", "tensorShape": {}}}, "dtype": {"type": "DT_INT32"}}}, {"name": "swa_model/Tensordot_3/Const_2", "op": "Const", "attr": {"value": {"tensor": {"dtype": "DT_INT32", "tensorShape": {"dim": [{"size": "1"}]}}}, "dtype": {"type": "DT_INT32"}}}, {"name": "swa_model/Tensordot_3/concat_1/axis", "op": "Const", "attr": {"value": {"tensor": {"dtype": "DT_INT32", "tensorShape": {}}}, "dtype": {"type": "DT_INT32"}}}, {"name": "swa_model/rconv8/norm2/gamma", "op": "Const", "attr": {"value": {"tensor": {"dtype": "DT_FLOAT", "tensorShape": {"dim": [{"size": "96"}]}}}, "dtype": {"type": "DT_FLOAT"}}}, {"name": "swa_model/rconv8/norm2/beta", "op": "Const", "attr": {"value": {"tensor": {"dtype": "DT_FLOAT", "tensorShape": {"dim": [{"size": "96"}]}}}, "dtype": {"type": "DT_FLOAT"}}}, {"name": "swa_model/rconv8/w2", "op": "Const", "attr": {"value": {"tensor": {"dtype": "DT_FLOAT", "tensorShape": {"dim": [{"size": "3"}, {"size": "3"}, {"size": "96"}, {"size": "128"}]}}}, "dtype": {"type": "DT_FLOAT"}}}, {"name": "swa_model/rconv9/norm1/beta", "op": "Const", "attr": {"value": {"tensor": {"dtype": "DT_FLOAT", "tensorShape": {"dim": [{"size": "128"}]}}}, "dtype": {"type": "DT_FLOAT"}}}, {"name": "swa_model/Conv2D_19/merged_input", "op": "Const", "attr": {"value": {"tensor": {"dtype": "DT_FLOAT", "tensorShape": {"dim": [{"size": "3"}, {"size": "3"}, {"size": "128"}, {"size": "128"}]}}}, "dtype": {"type": "DT_FLOAT"}}}, {"name": "swa_model/rconv9/norm2/beta", "op": "Const", "attr": {"value": {"tensor": {"dtype": "DT_FLOAT", "tensorShape": {"dim": [{"size": "128"}]}}}, "dtype": {"type": "DT_FLOAT"}}}, {"name": "swa_model/rconv9/w2", "op": "Const", "attr": {"value": {"tensor": {"dtype": "DT_FLOAT", "tensorShape": {"dim": [{"size": "3"}, {"size": "3"}, {"size": "128"}, {"size": "128"}]}}}, "dtype": {"type": "DT_FLOAT"}}}, {"name": "swa_model/rconv10/norm1/beta", "op": "Const", "attr": {"value": {"tensor": {"dtype": "DT_FLOAT", "tensorShape": {"dim": [{"size": "128"}]}}}, "dtype": {"type": "DT_FLOAT"}}}, {"name": "swa_model/Conv2D_21/merged_input", "op": "Const", "attr": {"value": {"tensor": {"dtype": "DT_FLOAT", "tensorShape": {"dim": [{"size": "3"}, {"size": "3"}, {"size": "128"}, {"size": "128"}]}}}, "dtype": {"type": "DT_FLOAT"}}}, {"name": "swa_model/rconv10/norm2/beta", "op": "Const", "attr": {"value": {"tensor": {"dtype": "DT_FLOAT", "tensorShape": {"dim": [{"size": "128"}]}}}, "dtype": {"type": "DT_FLOAT"}}}, {"name": "swa_model/rconv10/w2", "op": "Const", "attr": {"value": {"tensor": {"dtype": "DT_FLOAT", "tensorShape": {"dim": [{"size": "3"}, {"size": "3"}, {"size": "128"}, {"size": "128"}]}}}, "dtype": {"type": "DT_FLOAT"}}}, {"name": "swa_model/v1/w", "op": "Const", "attr": {"value": {"tensor": {"dtype": "DT_FLOAT", "tensorShape": {"dim": [{"size": "1"}, {"size": "1"}, {"size": "128"}, {"size": "32"}]}}}, "dtype": {"type": "DT_FLOAT"}}}, {"name": "swa_model/v1/norm/beta", "op": "Const", "attr": {"value": {"tensor": {"dtype": "DT_FLOAT", "tensorShape": {"dim": [{"size": "32"}]}}}, "dtype": {"type": "DT_FLOAT"}}}, {"name": "swa_model/Sum_5/reduction_indices", "op": "Const", "attr": {"value": {"tensor": {"dtype": "DT_INT32", "tensorShape": {"dim": [{"size": "2"}]}}}, "dtype": {"type": "DT_INT32"}}}, {"name": "swa_model/Reshape_13/shape", "op": "Const", "attr": {"value": {"tensor": {"dtype": "DT_INT32", "tensorShape": {"dim": [{"size": "2"}]}}}, "dtype": {"type": "DT_INT32"}}}, {"name": "swa_model/bin_inputs", "op": "Placeholder", "attr": {"shape": {"shape": {"dim": [{"size": "-1"}, {"size": "361"}, {"size": "22"}]}}, "dtype": {"type": "DT_FLOAT"}}}, {"name": "swa_model/Reshape/shape", "op": "Const", "attr": {"value": {"tensor": {"dtype": "DT_INT32", "tensorShape": {"dim": [{"size": "4"}]}}}, "dtype": {"type": "DT_INT32"}}}, {"name": "swa_model/strided_slice_1", "op": "Const", "attr": {"value": {"tensor": {"dtype": "DT_BOOL", "tensorShape": {}}}, "dtype": {"type": "DT_BOOL"}}}, {"name": "swa_model/strided_slice_2", "op": "Const", "attr": {"value": {"tensor": {"dtype": "DT_BOOL", "tensorShape": {}}}, "dtype": {"type": "DT_BOOL"}}}, {"name": "swa_model/strided_slice_3", "op": "Const", "attr": {"value": {"tensor": {"dtype": "DT_BOOL", "tensorShape": {}}}, "dtype": {"type": "DT_BOOL"}}}, {"name": "swa_model/Reshape_2/shape", "op": "Const", "attr": {"value": {"tensor": {"dtype": "DT_INT32", "tensorShape": {"dim": [{"size": "3"}]}}}, "dtype": {"type": "DT_INT32"}}}, {"name": "swa_model/add", "op": "Const", "attr": {"value": {"tensor": {"dtype": "DT_FLOAT", "tensorShape": {"dim": [{"size": "1"}, {"size": "22"}, {"size": "22"}]}}}, "dtype": {"type": "DT_FLOAT"}}}, {"name": "swa_model/Reshape_3/shape", "op": "Const", "attr": {"value": {"tensor": {"dtype": "DT_INT32", "tensorShape": {"dim": [{"size": "4"}]}}}, "dtype": {"type": "DT_INT32"}}}, {"name": "swa_model/strided_slice_4/stack", "op": "Const", "attr": {"value": {"tensor": {"dtype": "DT_INT32", "tensorShape": {"dim": [{"size": "4"}]}}}, "dtype": {"type": "DT_INT32"}}}, {"name": "swa_model/strided_slice_4/stack_1", "op": "Const", "attr": {"value": {"tensor": {"dtype": "DT_INT32", "tensorShape": {"dim": [{"size": "4"}]}}}, "dtype": {"type": "DT_INT32"}}}, {"name": "swa_model/strided_slice_4/stack_2", "op": "Const", "attr": {"value": {"tensor": {"dtype": "DT_INT32", "tensorShape": {"dim": [{"size": "4"}]}}}, "dtype": {"type": "DT_INT32"}}}, {"name": "swa_model/Sum_1/reduction_indices", "op": "Const", "attr": {"value": {"tensor": {"dtype": "DT_INT32", "tensorShape": {"dim": [{"size": "3"}]}}}, "dtype": {"type": "DT_INT32"}}}, {"name": "swa_model/Reshape_14/shape", "op": "Const", "attr": {"value": {"tensor": {"dtype": "DT_INT32", "tensorShape": {"dim": [{"size": "2"}]}}}, "dtype": {"type": "DT_INT32"}}}, {"name": "swa_model/sub_6/y", "op": "Const", "attr": {"value": {"tensor": {"dtype": "DT_FLOAT", "tensorShape": {}}}, "dtype": {"type": "DT_FLOAT"}}}, {"name": "ConstantFolding/swa_model/truediv_8_recip", "op": "Const", "attr": {"value": {"tensor": {"dtype": "DT_FLOAT", "tensorShape": {}}}, "dtype": {"type": "DT_FLOAT"}}}, {"name": "swa_model/sub_7/y", "op": "Const", "attr": {"value": {"tensor": {"dtype": "DT_FLOAT", "tensorShape": {}}}, "dtype": {"type": "DT_FLOAT"}}}, {"name": "swa_model/concat_3/axis", "op": "Const", "attr": {"value": {"tensor": {"dtype": "DT_INT32", "tensorShape": {}}}, "dtype": {"type": "DT_INT32"}}}, {"name": "swa_model/v2/w", "op": "Const", "attr": {"value": {"tensor": {"dtype": "DT_FLOAT", "tensorShape": {"dim": [{"size": "96"}, {"size": "80"}]}}}, "dtype": {"type": "DT_FLOAT"}}}, {"name": "swa_model/v2/b", "op": "Const", "attr": {"value": {"tensor": {"dtype": "DT_FLOAT", "tensorShape": {"dim": [{"size": "80"}]}}}, "dtype": {"type": "DT_FLOAT"}}}, {"name": "swa_model/v3/w", "op": "Const", "attr": {"value": {"tensor": {"dtype": "DT_FLOAT", "tensorShape": {"dim": [{"size": "80"}, {"size": "3"}]}}}, "dtype": {"type": "DT_FLOAT"}}}, {"name": "swa_model/v3/b", "op": "Const", "attr": {"value": {"tensor": {"dtype": "DT_FLOAT", "tensorShape": {"dim": [{"size": "3"}]}}}, "dtype": {"type": "DT_FLOAT"}}}, {"name": "swa_model/value_output/shape", "op": "Const", "attr": {"value": {"tensor": {"dtype": "DT_INT32", "tensorShape": {"dim": [{"size": "2"}]}}}, "dtype": {"type": "DT_INT32"}}}, {"name": "swa_model/cond_6/Switch", "op": "Switch", "input": ["swa_model/strided_slice_11", "swa_model/strided_slice_11"], "attr": {"T": {"type": "DT_BOOL"}}}, {"name": "swa_model/cond_7/Switch", "op": "Switch", "input": ["swa_model/strided_slice_9", "swa_model/strided_slice_9"], "attr": {"T": {"type": "DT_BOOL"}}}, {"name": "swa_model/cond_8/Switch", "op": "Switch", "input": ["swa_model/strided_slice_10", "swa_model/strided_slice_10"], "attr": {"T": {"type": "DT_BOOL"}}}, {"name": "swa_model/cond_3/Switch", "op": "Switch", "input": ["swa_model/strided_slice_7", "swa_model/strided_slice_7"], "attr": {"T": {"type": "DT_BOOL"}}}, {"name": "swa_model/cond_4/Switch", "op": "Switch", "input": ["swa_model/strided_slice_5", "swa_model/strided_slice_5"], "attr": {"T": {"type": "DT_BOOL"}}}, {"name": "swa_model/cond_5/Switch", "op": "Switch", "input": ["swa_model/strided_slice_6", "swa_model/strided_slice_6"], "attr": {"T": {"type": "DT_BOOL"}}}, {"name": "swa_model/mul", "op": "Mul", "input": ["swa_model/global_inputs", "swa_model/PadV2"], "attr": {"T": {"type": "DT_FLOAT"}}}, {"name": "swa_model/Reshape", "op": "Reshape", "input": ["swa_model/bin_inputs", "swa_model/Reshape/shape"], "attr": {"T": {"type": "DT_FLOAT"}, "Tshape": {"type": "DT_INT32"}}}, {"name": "swa_model/cond/Switch", "op": "Switch", "input": ["swa_model/strided_slice_1", "swa_model/strided_slice_1"], "attr": {"T": {"type": "DT_BOOL"}}}, {"name": "swa_model/cond_1/Switch", "op": "Switch", "input": ["swa_model/strided_slice_2", "swa_model/strided_slice_2"], "attr": {"T": {"type": "DT_BOOL"}}}, {"name": "swa_model/cond_2/Switch", "op": "Switch", "input": ["swa_model/strided_slice_3", "swa_model/strided_slice_3"], "attr": {"T": {"type": "DT_BOOL"}}}, {"name": "swa_model/cond_6/switch_t", "op": "Identity", "input": ["swa_model/cond_6/Switch:1"], "attr": {"_has_manual_control_dependencies": {"b": true}, "T": {"type": "DT_BOOL"}}}, {"name": "swa_model/cond_7/switch_t", "op": "Identity", "input": ["swa_model/cond_7/Switch:1"], "attr": {"_has_manual_control_dependencies": {"b": true}, "T": {"type": "DT_BOOL"}}}, {"name": "swa_model/cond_8/switch_t", "op": "Identity", "input": ["swa_model/cond_8/Switch:1"], "attr": {"_has_manual_control_dependencies": {"b": true}, "T": {"type": "DT_BOOL"}}}, {"name": "swa_model/cond_3/switch_t", "op": "Identity", "input": ["swa_model/cond_3/Switch:1"], "attr": {"_has_manual_control_dependencies": {"b": true}, "T": {"type": "DT_BOOL"}}}, {"name": "swa_model/cond_4/switch_t", "op": "Identity", "input": ["swa_model/cond_4/Switch:1"], "attr": {"_has_manual_control_dependencies": {"b": true}, "T": {"type": "DT_BOOL"}}}, {"name": "swa_model/cond_5/switch_t", "op": "Identity", "input": ["swa_model/cond_5/Switch:1"], "attr": {"_has_manual_control_dependencies": {"b": true}, "T": {"type": "DT_BOOL"}}}, {"name": "swa_model/Tensordot_1/Shape", "op": "Shape", "input": ["swa_model/mul"], "attr": {"T": {"type": "DT_FLOAT"}, "out_type": {"type": "DT_INT32"}}, "experimentalType": {"typeId": "TFT_PRODUCT", "args": [{"typeId": "TFT_SHAPE_TENSOR", "args": [{"typeId": "TFT_INT32"}]}]}}, {"name": "swa_model/cond/Switch_1", "op": "Switch", "input": ["swa_model/Reshape", "swa_model/strided_slice_1"], "attr": {"T": {"type": "DT_FLOAT"}}}, {"name": "swa_model/cond/ReverseV2/Switch", "op": "Switch", "input": ["swa_model/Reshape", "swa_model/strided_slice_1"], "attr": {"T": {"type": "DT_FLOAT"}}}, {"name": "swa_model/cond/switch_t", "op": "Identity", "input": ["swa_model/cond/Switch:1"], "attr": {"_has_manual_control_dependencies": {"b": true}, "T": {"type": "DT_BOOL"}}}, {"name": "swa_model/cond_1/switch_t", "op": "Identity", "input": ["swa_model/cond_1/Switch:1"], "attr": {"_has_manual_control_dependencies": {"b": true}, "T": {"type": "DT_BOOL"}}}, {"name": "swa_model/cond_2/switch_t", "op": "Identity", "input": ["swa_model/cond_2/Switch:1"], "attr": {"_has_manual_control_dependencies": {"b": true}, "T": {"type": "DT_BOOL"}}}, {"name": "swa_model/cond_6/transpose/perm", "op": "Const", "input": ["^swa_model/cond_6/switch_t"], "attr": {"value": {"tensor": {"dtype": "DT_INT32", "tensorShape": {"dim": [{"size": "4"}]}}}, "dtype": {"type": "DT_INT32"}}}, {"name": "swa_model/cond_7/ReverseV2/axis", "op": "Const", "input": ["^swa_model/cond_7/switch_t"], "attr": {"value": {"tensor": {"dtype": "DT_INT32", "tensorShape": {"dim": [{"size": "1"}]}}}, "dtype": {"type": "DT_INT32"}}}, {"name": "swa_model/cond_8/ReverseV2/axis", "op": "Const", "input": ["^swa_model/cond_8/switch_t"], "attr": {"value": {"tensor": {"dtype": "DT_INT32", "tensorShape": {"dim": [{"size": "1"}]}}}, "dtype": {"type": "DT_INT32"}}}, {"name": "swa_model/cond_3/transpose/perm", "op": "Const", "input": ["^swa_model/cond_3/switch_t"], "attr": {"value": {"tensor": {"dtype": "DT_INT32", "tensorShape": {"dim": [{"size": "4"}]}}}, "dtype": {"type": "DT_INT32"}}}, {"name": "swa_model/cond_4/ReverseV2/axis", "op": "Const", "input": ["^swa_model/cond_4/switch_t"], "attr": {"value": {"tensor": {"dtype": "DT_INT32", "tensorShape": {"dim": [{"size": "1"}]}}}, "dtype": {"type": "DT_INT32"}}}, {"name": "swa_model/cond_5/ReverseV2/axis", "op": "Const", "input": ["^swa_model/cond_5/switch_t"], "attr": {"value": {"tensor": {"dtype": "DT_INT32", "tensorShape": {"dim": [{"size": "1"}]}}}, "dtype": {"type": "DT_INT32"}}}, {"name": "swa_model/Tensordot_1/GatherV2", "op": "GatherV2", "input": ["swa_model/Tensordot_1/Shape", "swa_model/Tensordot_1/free", "swa_model/Tensordot_1/GatherV2/axis"], "attr": {"Tindices": {"type": "DT_INT32"}, "batch_dims": {"i": "0"}, "Taxis": {"type": "DT_INT32"}, "Tparams": {"type": "DT_INT32"}}}, {"name": "swa_model/Tensordot_1/GatherV2_1", "op": "GatherV2", "input": ["swa_model/Tensordot_1/Shape", "swa_model/Tensordot_1/axes", "swa_model/Tensordot_1/GatherV2_1/axis"], "attr": {"Tindices": {"type": "DT_INT32"}, "batch_dims": {"i": "0"}, "Taxis": {"type": "DT_INT32"}, "Tparams": {"type": "DT_INT32"}}}, {"name": "swa_model/cond/ReverseV2/axis", "op": "Const", "input": ["^swa_model/cond/switch_t"], "attr": {"value": {"tensor": {"dtype": "DT_INT32", "tensorShape": {"dim": [{"size": "1"}]}}}, "dtype": {"type": "DT_INT32"}}}, {"name": "swa_model/cond_1/ReverseV2/axis", "op": "Const", "input": ["^swa_model/cond_1/switch_t"], "attr": {"value": {"tensor": {"dtype": "DT_INT32", "tensorShape": {"dim": [{"size": "1"}]}}}, "dtype": {"type": "DT_INT32"}}}, {"name": "swa_model/cond_2/transpose/perm", "op": "Const", "input": ["^swa_model/cond_2/switch_t"], "attr": {"value": {"tensor": {"dtype": "DT_INT32", "tensorShape": {"dim": [{"size": "4"}]}}}, "dtype": {"type": "DT_INT32"}}}, {"name": "swa_model/Tensordot_1/Prod", "op": "Prod", "input": ["swa_model/Tensordot_1/GatherV2", "swa_model/Tensordot_1/Const"], "attr": {"T": {"type": "DT_INT32"}, "keep_dims": {"b": false}, "Tidx": {"type": "DT_INT32"}}}, {"name": "swa_model/Tensordot_1/Prod_1", "op": "Prod", "input": ["swa_model/Tensordot_1/GatherV2_1", "swa_model/Tensordot_1/Const_1"], "attr": {"keep_dims": {"b": false}, "T": {"type": "DT_INT32"}, "Tidx": {"type": "DT_INT32"}}}, {"name": "swa_model/cond/ReverseV2", "op": "ReverseV2", "input": ["swa_model/cond/ReverseV2/Switch:1", "swa_model/cond/ReverseV2/axis"], "attr": {"T": {"type": "DT_FLOAT"}, "Tidx": {"type": "DT_INT32"}}}, {"name": "swa_model/Tensordot_1/stack", "op": "Pack", "input": ["swa_model/Tensordot_1/Prod", "swa_model/Tensordot_1/Prod_1"], "attr": {"N": {"i": "2"}, "T": {"type": "DT_INT32"}, "axis": {"i": "0"}}}, {"name": "swa_model/cond/Merge", "op": "Merge", "input": ["swa_model/cond/Switch_1", "swa_model/cond/ReverseV2"], "attr": {"N": {"i": "2"}, "T": {"type": "DT_FLOAT"}}}, {"name": "swa_model/Tensordot_1/Reshape", "op": "Reshape", "input": ["swa_model/mul", "swa_model/Tensordot_1/stack"], "attr": {"T": {"type": "DT_FLOAT"}, "Tshape": {"type": "DT_INT32"}}}, {"name": "swa_model/cond_1/Switch_1", "op": "Switch", "input": ["swa_model/cond/Merge", "swa_model/strided_slice_2"], "attr": {"T": {"type": "DT_FLOAT"}}}, {"name": "swa_model/cond_1/ReverseV2/Switch", "op": "Switch", "input": ["swa_model/cond/Merge", "swa_model/strided_slice_2"], "attr": {"T": {"type": "DT_FLOAT"}}}, {"name": "swa_model/Tensordot_1/MatMul", "op": "MatMul", "input": ["swa_model/Tensordot_1/Reshape", "swa_model/ginputw"], "device": "/device:CPU:0", "attr": {"grad_b": {"b": false}, "grad_a": {"b": false}, "T": {"type": "DT_FLOAT"}, "transpose_a": {"b": false}, "transpose_b": {"b": false}}}, {"name": "swa_model/cond_1/ReverseV2", "op": "ReverseV2", "input": ["swa_model/cond_1/ReverseV2/Switch:1", "swa_model/cond_1/ReverseV2/axis"], "attr": {"T": {"type": "DT_FLOAT"}, "Tidx": {"type": "DT_INT32"}}}, {"name": "swa_model/Reshape_4", "op": "Reshape", "input": ["swa_model/Tensordot_1/MatMul", "swa_model/Reshape_4/shape"], "attr": {"T": {"type": "DT_FLOAT"}, "Tshape": {"type": "DT_INT32"}}}, {"name": "swa_model/cond_1/Merge", "op": "Merge", "input": ["swa_model/cond_1/Switch_1", "swa_model/cond_1/ReverseV2"], "attr": {"N": {"i": "2"}, "T": {"type": "DT_FLOAT"}}}, {"name": "swa_model/cond_2/Switch_1", "op": "Switch", "input": ["swa_model/cond_1/Merge", "swa_model/strided_slice_3"], "attr": {"T": {"type": "DT_FLOAT"}}}, {"name": "swa_model/cond_2/transpose/Switch", "op": "Switch", "input": ["swa_model/cond_1/Merge", "swa_model/strided_slice_3"], "attr": {"T": {"type": "DT_FLOAT"}}}, {"name": "swa_model/cond_2/transpose", "op": "Transpose", "input": ["swa_model/cond_2/transpose/Switch:1", "swa_model/cond_2/transpose/perm"], "attr": {"T": {"type": "DT_FLOAT"}, "Tperm": {"type": "DT_INT32"}}}, {"name": "swa_model/cond_2/Merge", "op": "Merge", "input": ["swa_model/cond_2/Switch_1", "swa_model/cond_2/transpose"], "attr": {"N": {"i": "2"}, "T": {"type": "DT_FLOAT"}}}, {"name": "swa_model/Reshape_2", "op": "Reshape", "input": ["swa_model/cond_2/Merge", "swa_model/Reshape_2/shape"], "attr": {"T": {"type": "DT_FLOAT"}, "Tshape": {"type": "DT_INT32"}}}, {"name": "swa_model/MatMul", "op": "BatchMatMulV2", "input": ["swa_model/Reshape_2", "swa_model/add"], "attr": {"grad_x": {"b": false}, "grad_y": {"b": false}, "T": {"type": "DT_FLOAT"}, "adj_y": {"b": false}, "adj_x": {"b": false}}}, {"name": "swa_model/Reshape_3", "op": "Reshape", "input": ["swa_model/MatMul", "swa_model/Reshape_3/shape"], "attr": {"T": {"type": "DT_FLOAT"}, "Tshape": {"type": "DT_INT32"}}}, {"name": "swa_model/Conv2D", "op": "Conv2D", "input": ["swa_model/Reshape_3", "swa_model/conv1/w"], "device": "/device:CPU:0", "attr": {"padding": {"s": "U0FNRQ=="}, "T": {"type": "DT_FLOAT"}, "strides": {"list": {"i": ["1", "1", "1", "1"]}}, "data_format": {"s": "TkhXQw=="}, "dilations": {"list": {"i": ["1", "1", "1", "1"]}}, "use_cudnn_on_gpu": {"b": true}, "explicit_paddings": {"list": {}}}}, {"name": "swa_model/strided_slice_4", "op": "StridedSlice", "input": ["swa_model/Reshape_3", "swa_model/strided_slice_4/stack", "swa_model/strided_slice_4/stack_1", "swa_model/strided_slice_4/stack_2"], "attr": {"ellipsis_mask": {"i": "0"}, "shrink_axis_mask": {"i": "0"}, "end_mask": {"i": "7"}, "T": {"type": "DT_FLOAT"}, "new_axis_mask": {"i": "0"}, "begin_mask": {"i": "7"}, "Index": {"type": "DT_INT32"}}}, {"name": "swa_model/add_1", "op": "AddV2", "input": ["swa_model/Conv2D", "swa_model/Reshape_4"], "attr": {"T": {"type": "DT_FLOAT"}}}, {"name": "swa_model/sub_3", "op": "Sub", "input": ["swa_model/sub_3/x", "swa_model/strided_slice_4"], "attr": {"T": {"type": "DT_FLOAT"}}}, {"name": "swa_model/Sum_1", "op": "Sum", "input": ["swa_model/strided_slice_4", "swa_model/Sum_1/reduction_indices"], "attr": {"keep_dims": {"b": false}, "T": {"type": "DT_FLOAT"}, "Tidx": {"type": "DT_INT32"}}}, {"name": "swa_model/add_2", "op": "AddV2", "input": ["swa_model/add_1", "swa_model/rconv1/norm1/beta"], "attr": {"T": {"type": "DT_FLOAT"}}}, {"name": "swa_model/mul_69", "op": "Mul", "input": ["swa_model/sub_3", "swa_model/mul_69/y"], "attr": {"T": {"type": "DT_FLOAT"}}}, {"name": "swa_model/Reshape_9", "op": "Reshape", "input": ["swa_model/Sum_1", "swa_model/Reshape_9/shape"], "attr": {"T": {"type": "DT_FLOAT"}, "Tshape": {"type": "DT_INT32"}}}, {"name": "swa_model/Reshape_7", "op": "Reshape", "input": ["swa_model/Sum_1", "swa_model/Reshape_7/shape"], "attr": {"T": {"type": "DT_FLOAT"}, "Tshape": {"type": "DT_INT32"}}}, {"name": "swa_model/Reshape_5", "op": "Reshape", "input": ["swa_model/Sum_1", "swa_model/Reshape_5/shape"], "attr": {"T": {"type": "DT_FLOAT"}, "Tshape": {"type": "DT_INT32"}}}, {"name": "swa_model/Reshape_13", "op": "Reshape", "input": ["swa_model/Sum_1", "swa_model/Reshape_13/shape"], "attr": {"T": {"type": "DT_FLOAT"}, "Tshape": {"type": "DT_INT32"}}}, {"name": "swa_model/Sqrt", "op": "Sqrt", "input": ["swa_model/Sum_1"], "attr": {"T": {"type": "DT_FLOAT"}}}, {"name": "swa_model/mul_3", "op": "Mul", "input": ["swa_model/add_2", "swa_model/strided_slice_4"], "attr": {"T": {"type": "DT_FLOAT"}}}, {"name": "swa_model/Reshape_10", "op": "Reshape", "input": ["swa_model/Sqrt", "swa_model/Reshape_10/shape"], "attr": {"T": {"type": "DT_FLOAT"}, "Tshape": {"type": "DT_INT32"}}}, {"name": "swa_model/Reshape_8", "op": "Reshape", "input": ["swa_model/Sqrt", "swa_model/Reshape_8/shape"], "attr": {"T": {"type": "DT_FLOAT"}, "Tshape": {"type": "DT_INT32"}}}, {"name": "swa_model/Reshape_6", "op": "Reshape", "input": ["swa_model/Sqrt", "swa_model/Reshape_6/shape"], "attr": {"T": {"type": "DT_FLOAT"}, "Tshape": {"type": "DT_INT32"}}}, {"name": "swa_model/Reshape_14", "op": "Reshape", "input": ["swa_model/Sqrt", "swa_model/Reshape_14/shape"], "attr": {"T": {"type": "DT_FLOAT"}, "Tshape": {"type": "DT_INT32"}}}, {"name": "swa_model/Relu", "op": "Relu", "input": ["swa_model/mul_3"], "attr": {"T": {"type": "DT_FLOAT"}}}, {"name": "swa_model/sub_2", "op": "Sub", "input": ["swa_model/Reshape_10", "swa_model/sub_2/y"], "attr": {"T": {"type": "DT_FLOAT"}}}, {"name": "swa_model/sub_1", "op": "Sub", "input": ["swa_model/Reshape_8", "swa_model/sub_1/y"], "attr": {"T": {"type": "DT_FLOAT"}}}, {"name": "swa_model/sub", "op": "Sub", "input": ["swa_model/Reshape_6", "swa_model/sub/y"], "attr": {"T": {"type": "DT_FLOAT"}}}, {"name": "swa_model/sub_5", "op": "Sub", "input": ["swa_model/Reshape_14", "swa_model/sub_5/y"], "attr": {"T": {"type": "DT_FLOAT"}}}, {"name": "swa_model/sub_6", "op": "SquaredDifference", "input": ["swa_model/Reshape_14", "swa_model/sub_6/y"], "attr": {"T": {"type": "DT_FLOAT"}}}, {"name": "swa_model/mul_5", "op": "Conv2D", "input": ["swa_model/Relu", "swa_model/Conv2D_1/merged_input"], "device": "/device:CPU:0", "attr": {"padding": {"s": "U0FNRQ=="}, "T": {"type": "DT_FLOAT"}, "strides": {"list": {"i": ["1", "1", "1", "1"]}}, "data_format": {"s": "TkhXQw=="}, "dilations": {"list": {"i": ["1", "1", "1", "1"]}}, "use_cudnn_on_gpu": {"b": true}, "explicit_paddings": {"list": {}}}}, {"name": "swa_model/truediv_5", "op": "Mul", "input": ["swa_model/sub_2", "ConstantFolding/swa_model/truediv_5_recip"], "attr": {"T": {"type": "DT_FLOAT"}}}, {"name": "swa_model/truediv_3", "op": "Mul", "input": ["swa_model/sub_1", "ConstantFolding/swa_model/truediv_3_recip"], "attr": {"T": {"type": "DT_FLOAT"}}}, {"name": "swa_model/truediv_1", "op": "Mul", "input": ["swa_model/sub", "ConstantFolding/swa_model/truediv_1_recip"], "attr": {"T": {"type": "DT_FLOAT"}}}, {"name": "swa_model/truediv_7", "op": "Mul", "input": ["swa_model/sub_5", "ConstantFolding/swa_model/truediv_7_recip"], "attr": {"T": {"type": "DT_FLOAT"}}}, {"name": "swa_model/truediv_8", "op": "Mul", "input": ["swa_model/sub_6", "ConstantFolding/swa_model/truediv_8_recip"], "attr": {"T": {"type": "DT_FLOAT"}}}, {"name": "swa_model/add_4", "op": "AddV2", "input": ["swa_model/mul_5", "swa_model/rconv1/norm2/beta"], "attr": {"T": {"type": "DT_FLOAT"}}}, {"name": "swa_model/sub_7", "op": "Sub", "input": ["swa_model/truediv_8", "swa_model/sub_7/y"], "attr": {"T": {"type": "DT_FLOAT"}}}, {"name": "swa_model/mul_6", "op": "Mul", "input": ["swa_model/add_4", "swa_model/strided_slice_4"], "attr": {"T": {"type": "DT_FLOAT"}}}, {"name": "swa_model/Relu_1", "op": "Relu", "input": ["swa_model/mul_6"], "attr": {"T": {"type": "DT_FLOAT"}}}, {"name": "swa_model/Conv2D_2", "op": "Conv2D", "input": ["swa_model/Relu_1", "swa_model/rconv1/w2"], "device": "/device:CPU:0", "attr": {"padding": {"s": "U0FNRQ=="}, "T": {"type": "DT_FLOAT"}, "strides": {"list": {"i": ["1", "1", "1", "1"]}}, "data_format": {"s": "TkhXQw=="}, "dilations": {"list": {"i": ["1", "1", "1", "1"]}}, "use_cudnn_on_gpu": {"b": true}, "explicit_paddings": {"list": {}}}}, {"name": "swa_model/add_5", "op": "AddV2", "input": ["swa_model/add_1", "swa_model/Conv2D_2"], "attr": {"T": {"type": "DT_FLOAT"}}}, {"name": "swa_model/add_6", "op": "AddV2", "input": ["swa_model/add_5", "swa_model/rconv2/norm1/beta"], "attr": {"T": {"type": "DT_FLOAT"}}}, {"name": "swa_model/mul_8", "op": "Mul", "input": ["swa_model/add_6", "swa_model/strided_slice_4"], "attr": {"T": {"type": "DT_FLOAT"}}}, {"name": "swa_model/Relu_2", "op": "Relu", "input": ["swa_model/mul_8"], "attr": {"T": {"type": "DT_FLOAT"}}}, {"name": "swa_model/mul_10", "op": "Conv2D", "input": ["swa_model/Relu_2", "swa_model/Conv2D_3/merged_input"], "device": "/device:CPU:0", "attr": {"padding": {"s": "U0FNRQ=="}, "T": {"type": "DT_FLOAT"}, "data_format": {"s": "TkhXQw=="}, "strides": {"list": {"i": ["1", "1", "1", "1"]}}, "dilations": {"list": {"i": ["1", "1", "1", "1"]}}, "use_cudnn_on_gpu": {"b": true}, "explicit_paddings": {"list": {}}}}, {"name": "swa_model/add_8", "op": "AddV2", "input": ["swa_model/mul_10", "swa_model/rconv2/norm2/beta"], "attr": {"T": {"type": "DT_FLOAT"}}}, {"name": "swa_model/mul_11", "op": "Mul", "input": ["swa_model/add_8", "swa_model/strided_slice_4"], "attr": {"T": {"type": "DT_FLOAT"}}}, {"name": "swa_model/Relu_3", "op": "Relu", "input": ["swa_model/mul_11"], "attr": {"T": {"type": "DT_FLOAT"}}}, {"name": "swa_model/Conv2D_4", "op": "Conv2D", "input": ["swa_model/Relu_3", "swa_model/rconv2/w2"], "device": "/device:CPU:0", "attr": {"padding": {"s": "U0FNRQ=="}, "T": {"type": "DT_FLOAT"}, "data_format": {"s": "TkhXQw=="}, "strides": {"list": {"i": ["1", "1", "1", "1"]}}, "dilations": {"list": {"i": ["1", "1", "1", "1"]}}, "use_cudnn_on_gpu": {"b": true}, "explicit_paddings": {"list": {}}}}, {"name": "swa_model/add_9", "op": "AddV2", "input": ["swa_model/add_5", "swa_model/Conv2D_4"], "attr": {"T": {"type": "DT_FLOAT"}}}, {"name": "swa_model/add_10", "op": "AddV2", "input": ["swa_model/add_9", "swa_model/rconv3/norm1/beta"], "attr": {"T": {"type": "DT_FLOAT"}}}, {"name": "swa_model/mul_13", "op": "Mul", "input": ["swa_model/add_10", "swa_model/strided_slice_4"], "attr": {"T": {"type": "DT_FLOAT"}}}, {"name": "swa_model/Relu_4", "op": "Relu", "input": ["swa_model/mul_13"], "attr": {"T": {"type": "DT_FLOAT"}}}, {"name": "swa_model/mul_15", "op": "Conv2D", "input": ["swa_model/Relu_4", "swa_model/Conv2D_5/merged_input"], "device": "/device:CPU:0", "attr": {"padding": {"s": "U0FNRQ=="}, "T": {"type": "DT_FLOAT"}, "strides": {"list": {"i": ["1", "1", "1", "1"]}}, "data_format": {"s": "TkhXQw=="}, "dilations": {"list": {"i": ["1", "1", "1", "1"]}}, "use_cudnn_on_gpu": {"b": true}, "explicit_paddings": {"list": {}}}}, {"name": "swa_model/add_12", "op": "AddV2", "input": ["swa_model/mul_15", "swa_model/rconv3/norm2/beta"], "attr": {"T": {"type": "DT_FLOAT"}}}, {"name": "swa_model/mul_16", "op": "Mul", "input": ["swa_model/add_12", "swa_model/strided_slice_4"], "attr": {"T": {"type": "DT_FLOAT"}}}, {"name": "swa_model/Relu_5", "op": "Relu", "input": ["swa_model/mul_16"], "attr": {"T": {"type": "DT_FLOAT"}}}, {"name": "swa_model/Conv2D_6", "op": "Conv2D", "input": ["swa_model/Relu_5", "swa_model/rconv3/w2"], "device": "/device:CPU:0", "attr": {"padding": {"s": "U0FNRQ=="}, "T": {"type": "DT_FLOAT"}, "strides": {"list": {"i": ["1", "1", "1", "1"]}}, "data_format": {"s": "TkhXQw=="}, "dilations": {"list": {"i": ["1", "1", "1", "1"]}}, "use_cudnn_on_gpu": {"b": true}, "explicit_paddings": {"list": {}}}}, {"name": "swa_model/add_13", "op": "AddV2", "input": ["swa_model/add_9", "swa_model/Conv2D_6"], "attr": {"T": {"type": "DT_FLOAT"}}}, {"name": "swa_model/add_14", "op": "AddV2", "input": ["swa_model/add_13", "swa_model/rconv4/norm1/beta"], "attr": {"T": {"type": "DT_FLOAT"}}}, {"name": "swa_model/mul_18", "op": "Mul", "input": ["swa_model/add_14", "swa_model/strided_slice_4"], "attr": {"T": {"type": "DT_FLOAT"}}}, {"name": "swa_model/Relu_6", "op": "Relu", "input": ["swa_model/mul_18"], "attr": {"T": {"type": "DT_FLOAT"}}}, {"name": "swa_model/mul_20", "op": "Conv2D", "input": ["swa_model/Relu_6", "swa_model/Conv2D_7/merged_input"], "device": "/device:CPU:0", "attr": {"padding": {"s": "U0FNRQ=="}, "T": {"type": "DT_FLOAT"}, "data_format": {"s": "TkhXQw=="}, "strides": {"list": {"i": ["1", "1", "1", "1"]}}, "dilations": {"list": {"i": ["1", "1", "1", "1"]}}, "use_cudnn_on_gpu": {"b": true}, "explicit_paddings": {"list": {}}}}, {"name": "swa_model/add_16", "op": "AddV2", "input": ["swa_model/mul_20", "swa_model/rconv4/norm2/beta"], "attr": {"T": {"type": "DT_FLOAT"}}}, {"name": "swa_model/mul_21", "op": "Mul", "input": ["swa_model/add_16", "swa_model/strided_slice_4"], "attr": {"T": {"type": "DT_FLOAT"}}}, {"name": "swa_model/Relu_7", "op": "Relu", "input": ["swa_model/mul_21"], "attr": {"T": {"type": "DT_FLOAT"}}}, {"name": "swa_model/Conv2D_8", "op": "Conv2D", "input": ["swa_model/Relu_7", "swa_model/rconv4/w2"], "device": "/device:CPU:0", "attr": {"padding": {"s": "U0FNRQ=="}, "T": {"type": "DT_FLOAT"}, "data_format": {"s": "TkhXQw=="}, "strides": {"list": {"i": ["1", "1", "1", "1"]}}, "dilations": {"list": {"i": ["1", "1", "1", "1"]}}, "use_cudnn_on_gpu": {"b": true}, "explicit_paddings": {"list": {}}}}, {"name": "swa_model/add_17", "op": "AddV2", "input": ["swa_model/add_13", "swa_model/Conv2D_8"], "attr": {"T": {"type": "DT_FLOAT"}}}, {"name": "swa_model/add_18", "op": "AddV2", "input": ["swa_model/add_17", "swa_model/rconv5/norm1/beta"], "attr": {"T": {"type": "DT_FLOAT"}}}, {"name": "swa_model/mul_23", "op": "Mul", "input": ["swa_model/add_18", "swa_model/strided_slice_4"], "attr": {"T": {"type": "DT_FLOAT"}}}, {"name": "swa_model/Relu_8", "op": "Relu", "input": ["swa_model/mul_23"], "attr": {"T": {"type": "DT_FLOAT"}}}, {"name": "swa_model/Conv2D_9", "op": "Conv2D", "input": ["swa_model/Relu_8", "swa_model/rconv5/w1a"], "device": "/device:CPU:0", "attr": {"padding": {"s": "U0FNRQ=="}, "T": {"type": "DT_FLOAT"}, "strides": {"list": {"i": ["1", "1", "1", "1"]}}, "data_format": {"s": "TkhXQw=="}, "dilations": {"list": {"i": ["1", "1", "1", "1"]}}, "use_cudnn_on_gpu": {"b": true}, "explicit_paddings": {"list": {}}}}, {"name": "swa_model/Conv2D_10", "op": "Conv2D", "input": ["swa_model/Relu_8", "swa_model/rconv5/w1b"], "device": "/device:CPU:0", "attr": {"padding": {"s": "U0FNRQ=="}, "T": {"type": "DT_FLOAT"}, "data_format": {"s": "TkhXQw=="}, "strides": {"list": {"i": ["1", "1", "1", "1"]}}, "dilations": {"list": {"i": ["1", "1", "1", "1"]}}, "use_cudnn_on_gpu": {"b": true}, "explicit_paddings": {"list": {}}}}, {"name": "swa_model/add_19", "op": "AddV2", "input": ["swa_model/Conv2D_10", "swa_model/rconv5/norm1b/beta"], "attr": {"T": {"type": "DT_FLOAT"}}}, {"name": "swa_model/mul_26", "op": "Mul", "input": ["swa_model/add_19", "swa_model/strided_slice_4"], "attr": {"T": {"type": "DT_FLOAT"}}}, {"name": "swa_model/Relu_9", "op": "Relu", "input": ["swa_model/mul_26"], "attr": {"T": {"type": "DT_FLOAT"}}}, {"name": "swa_model/Sum_2", "op": "Sum", "input": ["swa_model/Relu_9", "swa_model/Sum_2/reduction_indices"], "attr": {"T": {"type": "DT_FLOAT"}, "keep_dims": {"b": true}, "Tidx": {"type": "DT_INT32"}}}, {"name": "swa_model/Max", "op": "Max", "input": ["swa_model/Relu_9", "swa_model/Max/reduction_indices"], "attr": {"T": {"type": "DT_FLOAT"}, "keep_dims": {"b": true}, "Tidx": {"type": "DT_INT32"}}}, {"name": "swa_model/truediv", "op": "RealDiv", "input": ["swa_model/Sum_2", "swa_model/Reshape_5"], "attr": {"T": {"type": "DT_FLOAT"}}}, {"name": "swa_model/mul_27", "op": "Mul", "input": ["swa_model/truediv", "swa_model/truediv_1"], "attr": {"T": {"type": "DT_FLOAT"}}}, {"name": "swa_model/concat", "op": "ConcatV2", "input": ["swa_model/truediv", "swa_model/mul_27", "swa_model/Max", "swa_model/concat/axis"], "attr": {"N": {"i": "3"}, "T": {"type": "DT_FLOAT"}, "Tidx": {"type": "DT_INT32"}}}, {"name": "swa_model/Tensordot_2/Shape", "op": "Shape", "input": ["swa_model/concat"], "attr": {"T": {"type": "DT_FLOAT"}, "out_type": {"type": "DT_INT32"}}, "experimentalType": {"typeId": "TFT_PRODUCT", "args": [{"typeId": "TFT_SHAPE_TENSOR", "args": [{"typeId": "TFT_INT32"}]}]}}, {"name": "swa_model/Tensordot_2/GatherV2_1", "op": "GatherV2", "input": ["swa_model/Tensordot_2/Shape", "swa_model/Tensordot_2/axes", "swa_model/Tensordot_2/GatherV2_1/axis"], "attr": {"Tindices": {"type": "DT_INT32"}, "batch_dims": {"i": "0"}, "Taxis": {"type": "DT_INT32"}, "Tparams": {"type": "DT_INT32"}}}, {"name": "swa_model/Tensordot_2/GatherV2", "op": "GatherV2", "input": ["swa_model/Tensordot_2/Shape", "swa_model/Tensordot_2/free", "swa_model/Tensordot_2/GatherV2/axis"], "attr": {"Tindices": {"type": "DT_INT32"}, "batch_dims": {"i": "0"}, "Taxis": {"type": "DT_INT32"}, "Tparams": {"type": "DT_INT32"}}}, {"name": "swa_model/Tensordot_2/Prod_1", "op": "Prod", "input": ["swa_model/Tensordot_2/GatherV2_1", "swa_model/Tensordot_2/Const_1"], "attr": {"T": {"type": "DT_INT32"}, "keep_dims": {"b": false}, "Tidx": {"type": "DT_INT32"}}}, {"name": "swa_model/Tensordot_2/Prod", "op": "Prod", "input": ["swa_model/Tensordot_2/GatherV2", "swa_model/Tensordot_2/Const"], "attr": {"T": {"type": "DT_INT32"}, "keep_dims": {"b": false}, "Tidx": {"type": "DT_INT32"}}}, {"name": "swa_model/Tensordot_2/concat_1", "op": "ConcatV2", "input": ["swa_model/Tensordot_2/GatherV2", "swa_model/Tensordot_2/Const_2", "swa_model/Tensordot_2/concat_1/axis"], "attr": {"N": {"i": "2"}, "T": {"type": "DT_INT32"}, "Tidx": {"type": "DT_INT32"}}}, {"name": "swa_model/Tensordot_2/stack", "op": "Pack", "input": ["swa_model/Tensordot_2/Prod", "swa_model/Tensordot_2/Prod_1"], "attr": {"N": {"i": "2"}, "T": {"type": "DT_INT32"}, "axis": {"i": "0"}}}, {"name": "swa_model/Tensordot_2/Reshape", "op": "Reshape", "input": ["swa_model/concat", "swa_model/Tensordot_2/stack"], "attr": {"T": {"type": "DT_FLOAT"}, "Tshape": {"type": "DT_INT32"}}}, {"name": "swa_model/Tensordot_2/MatMul", "op": "MatMul", "input": ["swa_model/Tensordot_2/Reshape", "swa_model/rconv5/w1r"], "device": "/device:CPU:0", "attr": {"grad_b": {"b": false}, "grad_a": {"b": false}, "T": {"type": "DT_FLOAT"}, "transpose_b": {"b": false}, "transpose_a": {"b": false}}}, {"name": "swa_model/Tensordot_2", "op": "Reshape", "input": ["swa_model/Tensordot_2/MatMul", "swa_model/Tensordot_2/concat_1"], "attr": {"T": {"type": "DT_FLOAT"}, "Tshape": {"type": "DT_INT32"}}}, {"name": "swa_model/add_20", "op": "AddV2", "input": ["swa_model/Conv2D_9", "swa_model/Tensordot_2"], "attr": {"T": {"type": "DT_FLOAT"}}}, {"name": "swa_model/mul_29", "op": "Mul", "input": ["swa_model/add_20", "swa_model/rconv5/norm2/gamma"], "attr": {"T": {"type": "DT_FLOAT"}}}, {"name": "swa_model/add_22", "op": "AddV2", "input": ["swa_model/mul_29", "swa_model/rconv5/norm2/beta"], "attr": {"T": {"type": "DT_FLOAT"}}}, {"name": "swa_model/mul_30", "op": "Mul", "input": ["swa_model/add_22", "swa_model/strided_slice_4"], "attr": {"T": {"type": "DT_FLOAT"}}}, {"name": "swa_model/Relu_10", "op": "Relu", "input": ["swa_model/mul_30"], "attr": {"T": {"type": "DT_FLOAT"}}}, {"name": "swa_model/Conv2D_11", "op": "Conv2D", "input": ["swa_model/Relu_10", "swa_model/rconv5/w2"], "device": "/device:CPU:0", "attr": {"padding": {"s": "U0FNRQ=="}, "T": {"type": "DT_FLOAT"}, "strides": {"list": {"i": ["1", "1", "1", "1"]}}, "data_format": {"s": "TkhXQw=="}, "dilations": {"list": {"i": ["1", "1", "1", "1"]}}, "use_cudnn_on_gpu": {"b": true}, "explicit_paddings": {"list": {}}}}, {"name": "swa_model/add_23", "op": "AddV2", "input": ["swa_model/add_17", "swa_model/Conv2D_11"], "attr": {"T": {"type": "DT_FLOAT"}}}, {"name": "swa_model/add_24", "op": "AddV2", "input": ["swa_model/add_23", "swa_model/rconv6/norm1/beta"], "attr": {"T": {"type": "DT_FLOAT"}}}, {"name": "swa_model/mul_32", "op": "Mul", "input": ["swa_model/add_24", "swa_model/strided_slice_4"], "attr": {"T": {"type": "DT_FLOAT"}}}, {"name": "swa_model/Relu_11", "op": "Relu", "input": ["swa_model/mul_32"], "attr": {"T": {"type": "DT_FLOAT"}}}, {"name": "swa_model/mul_34", "op": "Conv2D", "input": ["swa_model/Relu_11", "swa_model/Conv2D_12/merged_input"], "device": "/device:CPU:0", "attr": {"padding": {"s": "U0FNRQ=="}, "T": {"type": "DT_FLOAT"}, "data_format": {"s": "TkhXQw=="}, "strides": {"list": {"i": ["1", "1", "1", "1"]}}, "dilations": {"list": {"i": ["1", "1", "1", "1"]}}, "use_cudnn_on_gpu": {"b": true}, "explicit_paddings": {"list": {}}}}, {"name": "swa_model/add_26", "op": "AddV2", "input": ["swa_model/mul_34", "swa_model/rconv6/norm2/beta"], "attr": {"T": {"type": "DT_FLOAT"}}}, {"name": "swa_model/mul_35", "op": "Mul", "input": ["swa_model/add_26", "swa_model/strided_slice_4"], "attr": {"T": {"type": "DT_FLOAT"}}}, {"name": "swa_model/Relu_12", "op": "Relu", "input": ["swa_model/mul_35"], "attr": {"T": {"type": "DT_FLOAT"}}}, {"name": "swa_model/Conv2D_13", "op": "Conv2D", "input": ["swa_model/Relu_12", "swa_model/rconv6/w2"], "device": "/device:CPU:0", "attr": {"padding": {"s": "U0FNRQ=="}, "T": {"type": "DT_FLOAT"}, "strides": {"list": {"i": ["1", "1", "1", "1"]}}, "data_format": {"s": "TkhXQw=="}, "dilations": {"list": {"i": ["1", "1", "1", "1"]}}, "use_cudnn_on_gpu": {"b": true}, "explicit_paddings": {"list": {}}}}, {"name": "swa_model/add_27", "op": "AddV2", "input": ["swa_model/add_23", "swa_model/Conv2D_13"], "attr": {"T": {"type": "DT_FLOAT"}}}, {"name": "swa_model/add_28", "op": "AddV2", "input": ["swa_model/add_27", "swa_model/rconv7/norm1/beta"], "attr": {"T": {"type": "DT_FLOAT"}}}, {"name": "swa_model/mul_37", "op": "Mul", "input": ["swa_model/add_28", "swa_model/strided_slice_4"], "attr": {"T": {"type": "DT_FLOAT"}}}, {"name": "swa_model/Relu_13", "op": "Relu", "input": ["swa_model/mul_37"], "attr": {"T": {"type": "DT_FLOAT"}}}, {"name": "swa_model/mul_39", "op": "Conv2D", "input": ["swa_model/Relu_13", "swa_model/Conv2D_14/merged_input"], "device": "/device:CPU:0", "attr": {"padding": {"s": "U0FNRQ=="}, "T": {"type": "DT_FLOAT"}, "strides": {"list": {"i": ["1", "1", "1", "1"]}}, "data_format": {"s": "TkhXQw=="}, "dilations": {"list": {"i": ["1", "1", "1", "1"]}}, "use_cudnn_on_gpu": {"b": true}, "explicit_paddings": {"list": {}}}}, {"name": "swa_model/add_30", "op": "AddV2", "input": ["swa_model/mul_39", "swa_model/rconv7/norm2/beta"], "attr": {"T": {"type": "DT_FLOAT"}}}, {"name": "swa_model/mul_40", "op": "Mul", "input": ["swa_model/add_30", "swa_model/strided_slice_4"], "attr": {"T": {"type": "DT_FLOAT"}}}, {"name": "swa_model/Relu_14", "op": "Relu", "input": ["swa_model/mul_40"], "attr": {"T": {"type": "DT_FLOAT"}}}, {"name": "swa_model/Conv2D_15", "op": "Conv2D", "input": ["swa_model/Relu_14", "swa_model/rconv7/w2"], "device": "/device:CPU:0", "attr": {"padding": {"s": "U0FNRQ=="}, "T": {"type": "DT_FLOAT"}, "data_format": {"s": "TkhXQw=="}, "strides": {"list": {"i": ["1", "1", "1", "1"]}}, "dilations": {"list": {"i": ["1", "1", "1", "1"]}}, "use_cudnn_on_gpu": {"b": true}, "explicit_paddings": {"list": {}}}}, {"name": "swa_model/add_31", "op": "AddV2", "input": ["swa_model/add_27", "swa_model/Conv2D_15"], "attr": {"T": {"type": "DT_FLOAT"}}}, {"name": "swa_model/add_32", "op": "AddV2", "input": ["swa_model/add_31", "swa_model/rconv8/norm1/beta"], "attr": {"T": {"type": "DT_FLOAT"}}}, {"name": "swa_model/mul_42", "op": "Mul", "input": ["swa_model/add_32", "swa_model/strided_slice_4"], "attr": {"T": {"type": "DT_FLOAT"}}}, {"name": "swa_model/Relu_15", "op": "Relu", "input": ["swa_model/mul_42"], "attr": {"T": {"type": "DT_FLOAT"}}}, {"name": "swa_model/Conv2D_16", "op": "Conv2D", "input": ["swa_model/Relu_15", "swa_model/rconv8/w1a"], "device": "/device:CPU:0", "attr": {"padding": {"s": "U0FNRQ=="}, "T": {"type": "DT_FLOAT"}, "strides": {"list": {"i": ["1", "1", "1", "1"]}}, "data_format": {"s": "TkhXQw=="}, "dilations": {"list": {"i": ["1", "1", "1", "1"]}}, "use_cudnn_on_gpu": {"b": true}, "explicit_paddings": {"list": {}}}}, {"name": "swa_model/Conv2D_17", "op": "Conv2D", "input": ["swa_model/Relu_15", "swa_model/rconv8/w1b"], "device": "/device:CPU:0", "attr": {"padding": {"s": "U0FNRQ=="}, "T": {"type": "DT_FLOAT"}, "data_format": {"s": "TkhXQw=="}, "strides": {"list": {"i": ["1", "1", "1", "1"]}}, "dilations": {"list": {"i": ["1", "1", "1", "1"]}}, "use_cudnn_on_gpu": {"b": true}, "explicit_paddings": {"list": {}}}}, {"name": "swa_model/add_33", "op": "AddV2", "input": ["swa_model/Conv2D_17", "swa_model/rconv8/norm1b/beta"], "attr": {"T": {"type": "DT_FLOAT"}}}, {"name": "swa_model/mul_45", "op": "Mul", "input": ["swa_model/add_33", "swa_model/strided_slice_4"], "attr": {"T": {"type": "DT_FLOAT"}}}, {"name": "swa_model/Relu_16", "op": "Relu", "input": ["swa_model/mul_45"], "attr": {"T": {"type": "DT_FLOAT"}}}, {"name": "swa_model/Sum_3", "op": "Sum", "input": ["swa_model/Relu_16", "swa_model/Sum_3/reduction_indices"], "attr": {"keep_dims": {"b": true}, "T": {"type": "DT_FLOAT"}, "Tidx": {"type": "DT_INT32"}}}, {"name": "swa_model/Max_1", "op": "Max", "input": ["swa_model/Relu_16", "swa_model/Max_1/reduction_indices"], "attr": {"T": {"type": "DT_FLOAT"}, "keep_dims": {"b": true}, "Tidx": {"type": "DT_INT32"}}}, {"name": "swa_model/truediv_2", "op": "RealDiv", "input": ["swa_model/Sum_3", "swa_model/Reshape_7"], "attr": {"T": {"type": "DT_FLOAT"}}}, {"name": "swa_model/mul_46", "op": "Mul", "input": ["swa_model/truediv_2", "swa_model/truediv_3"], "attr": {"T": {"type": "DT_FLOAT"}}}, {"name": "swa_model/concat_1", "op": "ConcatV2", "input": ["swa_model/truediv_2", "swa_model/mul_46", "swa_model/Max_1", "swa_model/concat_1/axis"], "attr": {"N": {"i": "3"}, "T": {"type": "DT_FLOAT"}, "Tidx": {"type": "DT_INT32"}}}, {"name": "swa_model/Tensordot_3/Shape", "op": "Shape", "input": ["swa_model/concat_1"], "attr": {"out_type": {"type": "DT_INT32"}, "T": {"type": "DT_FLOAT"}}, "experimentalType": {"typeId": "TFT_PRODUCT", "args": [{"typeId": "TFT_SHAPE_TENSOR", "args": [{"typeId": "TFT_INT32"}]}]}}, {"name": "swa_model/Tensordot_3/GatherV2_1", "op": "GatherV2", "input": ["swa_model/Tensordot_3/Shape", "swa_model/Tensordot_3/axes", "swa_model/Tensordot_3/GatherV2_1/axis"], "attr": {"Tindices": {"type": "DT_INT32"}, "batch_dims": {"i": "0"}, "Taxis": {"type": "DT_INT32"}, "Tparams": {"type": "DT_INT32"}}}, {"name": "swa_model/Tensordot_3/GatherV2", "op": "GatherV2", "input": ["swa_model/Tensordot_3/Shape", "swa_model/Tensordot_3/free", "swa_model/Tensordot_3/GatherV2/axis"], "attr": {"Tindices": {"type": "DT_INT32"}, "batch_dims": {"i": "0"}, "Taxis": {"type": "DT_INT32"}, "Tparams": {"type": "DT_INT32"}}}, {"name": "swa_model/Tensordot_3/Prod_1", "op": "Prod", "input": ["swa_model/Tensordot_3/GatherV2_1", "swa_model/Tensordot_3/Const_1"], "attr": {"keep_dims": {"b": false}, "T": {"type": "DT_INT32"}, "Tidx": {"type": "DT_INT32"}}}, {"name": "swa_model/Tensordot_3/Prod", "op": "Prod", "input": ["swa_model/Tensordot_3/GatherV2", "swa_model/Tensordot_3/Const"], "attr": {"keep_dims": {"b": false}, "T": {"type": "DT_INT32"}, "Tidx": {"type": "DT_INT32"}}}, {"name": "swa_model/Tensordot_3/concat_1", "op": "ConcatV2", "input": ["swa_model/Tensordot_3/GatherV2", "swa_model/Tensordot_3/Const_2", "swa_model/Tensordot_3/concat_1/axis"], "attr": {"N": {"i": "2"}, "T": {"type": "DT_INT32"}, "Tidx": {"type": "DT_INT32"}}}, {"name": "swa_model/Tensordot_3/stack", "op": "Pack", "input": ["swa_model/Tensordot_3/Prod", "swa_model/Tensordot_3/Prod_1"], "attr": {"N": {"i": "2"}, "T": {"type": "DT_INT32"}, "axis": {"i": "0"}}}, {"name": "swa_model/Tensordot_3/Reshape", "op": "Reshape", "input": ["swa_model/concat_1", "swa_model/Tensordot_3/stack"], "attr": {"T": {"type": "DT_FLOAT"}, "Tshape": {"type": "DT_INT32"}}}, {"name": "swa_model/Tensordot_3/MatMul", "op": "MatMul", "input": ["swa_model/Tensordot_3/Reshape", "swa_model/rconv8/w1r"], "device": "/device:CPU:0", "attr": {"grad_b": {"b": false}, "grad_a": {"b": false}, "T": {"type": "DT_FLOAT"}, "transpose_a": {"b": false}, "transpose_b": {"b": false}}}, {"name": "swa_model/Tensordot_3", "op": "Reshape", "input": ["swa_model/Tensordot_3/MatMul", "swa_model/Tensordot_3/concat_1"], "attr": {"T": {"type": "DT_FLOAT"}, "Tshape": {"type": "DT_INT32"}}}, {"name": "swa_model/add_34", "op": "AddV2", "input": ["swa_model/Conv2D_16", "swa_model/Tensordot_3"], "attr": {"T": {"type": "DT_FLOAT"}}}, {"name": "swa_model/mul_48", "op": "Mul", "input": ["swa_model/add_34", "swa_model/rconv8/norm2/gamma"], "attr": {"T": {"type": "DT_FLOAT"}}}, {"name": "swa_model/add_36", "op": "AddV2", "input": ["swa_model/mul_48", "swa_model/rconv8/norm2/beta"], "attr": {"T": {"type": "DT_FLOAT"}}}, {"name": "swa_model/mul_49", "op": "Mul", "input": ["swa_model/add_36", "swa_model/strided_slice_4"], "attr": {"T": {"type": "DT_FLOAT"}}}, {"name": "swa_model/Relu_17", "op": "Relu", "input": ["swa_model/mul_49"], "attr": {"T": {"type": "DT_FLOAT"}}}, {"name": "swa_model/Conv2D_18", "op": "Conv2D", "input": ["swa_model/Relu_17", "swa_model/rconv8/w2"], "device": "/device:CPU:0", "attr": {"padding": {"s": "U0FNRQ=="}, "T": {"type": "DT_FLOAT"}, "data_format": {"s": "TkhXQw=="}, "strides": {"list": {"i": ["1", "1", "1", "1"]}}, "dilations": {"list": {"i": ["1", "1", "1", "1"]}}, "use_cudnn_on_gpu": {"b": true}, "explicit_paddings": {"list": {}}}}, {"name": "swa_model/add_37", "op": "AddV2", "input": ["swa_model/add_31", "swa_model/Conv2D_18"], "attr": {"T": {"type": "DT_FLOAT"}}}, {"name": "swa_model/add_38", "op": "AddV2", "input": ["swa_model/add_37", "swa_model/rconv9/norm1/beta"], "attr": {"T": {"type": "DT_FLOAT"}}}, {"name": "swa_model/mul_51", "op": "Mul", "input": ["swa_model/add_38", "swa_model/strided_slice_4"], "attr": {"T": {"type": "DT_FLOAT"}}}, {"name": "swa_model/Relu_18", "op": "Relu", "input": ["swa_model/mul_51"], "attr": {"T": {"type": "DT_FLOAT"}}}, {"name": "swa_model/mul_53", "op": "Conv2D", "input": ["swa_model/Relu_18", "swa_model/Conv2D_19/merged_input"], "device": "/device:CPU:0", "attr": {"padding": {"s": "U0FNRQ=="}, "T": {"type": "DT_FLOAT"}, "data_format": {"s": "TkhXQw=="}, "strides": {"list": {"i": ["1", "1", "1", "1"]}}, "dilations": {"list": {"i": ["1", "1", "1", "1"]}}, "use_cudnn_on_gpu": {"b": true}, "explicit_paddings": {"list": {}}}}, {"name": "swa_model/add_40", "op": "AddV2", "input": ["swa_model/mul_53", "swa_model/rconv9/norm2/beta"], "attr": {"T": {"type": "DT_FLOAT"}}}, {"name": "swa_model/mul_54", "op": "Mul", "input": ["swa_model/add_40", "swa_model/strided_slice_4"], "attr": {"T": {"type": "DT_FLOAT"}}}, {"name": "swa_model/Relu_19", "op": "Relu", "input": ["swa_model/mul_54"], "attr": {"T": {"type": "DT_FLOAT"}}}, {"name": "swa_model/Conv2D_20", "op": "Conv2D", "input": ["swa_model/Relu_19", "swa_model/rconv9/w2"], "device": "/device:CPU:0", "attr": {"padding": {"s": "U0FNRQ=="}, "T": {"type": "DT_FLOAT"}, "strides": {"list": {"i": ["1", "1", "1", "1"]}}, "data_format": {"s": "TkhXQw=="}, "dilations": {"list": {"i": ["1", "1", "1", "1"]}}, "use_cudnn_on_gpu": {"b": true}, "explicit_paddings": {"list": {}}}}, {"name": "swa_model/add_41", "op": "AddV2", "input": ["swa_model/add_37", "swa_model/Conv2D_20"], "attr": {"T": {"type": "DT_FLOAT"}}}, {"name": "swa_model/add_42", "op": "AddV2", "input": ["swa_model/add_41", "swa_model/rconv10/norm1/beta"], "attr": {"T": {"type": "DT_FLOAT"}}}, {"name": "swa_model/mul_56", "op": "Mul", "input": ["swa_model/add_42", "swa_model/strided_slice_4"], "attr": {"T": {"type": "DT_FLOAT"}}}, {"name": "swa_model/Relu_20", "op": "Relu", "input": ["swa_model/mul_56"], "attr": {"T": {"type": "DT_FLOAT"}}}, {"name": "swa_model/mul_58", "op": "Conv2D", "input": ["swa_model/Relu_20", "swa_model/Conv2D_21/merged_input"], "device": "/device:CPU:0", "attr": {"padding": {"s": "U0FNRQ=="}, "T": {"type": "DT_FLOAT"}, "data_format": {"s": "TkhXQw=="}, "strides": {"list": {"i": ["1", "1", "1", "1"]}}, "dilations": {"list": {"i": ["1", "1", "1", "1"]}}, "use_cudnn_on_gpu": {"b": true}, "explicit_paddings": {"list": {}}}}, {"name": "swa_model/add_44", "op": "AddV2", "input": ["swa_model/mul_58", "swa_model/rconv10/norm2/beta"], "attr": {"T": {"type": "DT_FLOAT"}}}, {"name": "swa_model/mul_59", "op": "Mul", "input": ["swa_model/add_44", "swa_model/strided_slice_4"], "attr": {"T": {"type": "DT_FLOAT"}}}, {"name": "swa_model/Relu_21", "op": "Relu", "input": ["swa_model/mul_59"], "attr": {"T": {"type": "DT_FLOAT"}}}, {"name": "swa_model/Conv2D_22", "op": "Conv2D", "input": ["swa_model/Relu_21", "swa_model/rconv10/w2"], "device": "/device:CPU:0", "attr": {"padding": {"s": "U0FNRQ=="}, "T": {"type": "DT_FLOAT"}, "data_format": {"s": "TkhXQw=="}, "strides": {"list": {"i": ["1", "1", "1", "1"]}}, "dilations": {"list": {"i": ["1", "1", "1", "1"]}}, "use_cudnn_on_gpu": {"b": true}, "explicit_paddings": {"list": {}}}}, {"name": "swa_model/add_45", "op": "AddV2", "input": ["swa_model/trunk/norm/beta", "swa_model/Conv2D_22"], "attr": {"T": {"type": "DT_FLOAT"}}}, {"name": "swa_model/add_46", "op": "AddV2", "input": ["swa_model/add_41", "swa_model/add_45"], "attr": {"T": {"type": "DT_FLOAT"}}}, {"name": "swa_model/mul_61", "op": "Mul", "input": ["swa_model/add_46", "swa_model/strided_slice_4"], "attr": {"T": {"type": "DT_FLOAT"}}}, {"name": "swa_model/Relu_22", "op": "Relu", "input": ["swa_model/mul_61"], "attr": {"T": {"type": "DT_FLOAT"}}}, {"name": "swa_model/Conv2D_23", "op": "Conv2D", "input": ["swa_model/Relu_22", "swa_model/p1/intermediate_conv/w"], "device": "/device:CPU:0", "attr": {"padding": {"s": "U0FNRQ=="}, "T": {"type": "DT_FLOAT"}, "strides": {"list": {"i": ["1", "1", "1", "1"]}}, "data_format": {"s": "TkhXQw=="}, "dilations": {"list": {"i": ["1", "1", "1", "1"]}}, "use_cudnn_on_gpu": {"b": true}, "explicit_paddings": {"list": {}}}}, {"name": "swa_model/Conv2D_24", "op": "Conv2D", "input": ["swa_model/Relu_22", "swa_model/g1/w"], "device": "/device:CPU:0", "attr": {"padding": {"s": "U0FNRQ=="}, "T": {"type": "DT_FLOAT"}, "data_format": {"s": "TkhXQw=="}, "strides": {"list": {"i": ["1", "1", "1", "1"]}}, "dilations": {"list": {"i": ["1", "1", "1", "1"]}}, "use_cudnn_on_gpu": {"b": true}, "explicit_paddings": {"list": {}}}}, {"name": "swa_model/Conv2D_26", "op": "Conv2D", "input": ["swa_model/Relu_22", "swa_model/v1/w"], "device": "/device:CPU:0", "attr": {"padding": {"s": "U0FNRQ=="}, "T": {"type": "DT_FLOAT"}, "data_format": {"s": "TkhXQw=="}, "strides": {"list": {"i": ["1", "1", "1", "1"]}}, "dilations": {"list": {"i": ["1", "1", "1", "1"]}}, "use_cudnn_on_gpu": {"b": true}, "explicit_paddings": {"list": {}}}}, {"name": "swa_model/add_47", "op": "AddV2", "input": ["swa_model/Conv2D_24", "swa_model/g1/norm/beta"], "attr": {"T": {"type": "DT_FLOAT"}}}, {"name": "swa_model/add_50", "op": "AddV2", "input": ["swa_model/Conv2D_26", "swa_model/v1/norm/beta"], "attr": {"T": {"type": "DT_FLOAT"}}}, {"name": "swa_model/mul_64", "op": "Mul", "input": ["swa_model/add_47", "swa_model/strided_slice_4"], "attr": {"T": {"type": "DT_FLOAT"}}}, {"name": "swa_model/mul_72", "op": "Mul", "input": ["swa_model/add_50", "swa_model/strided_slice_4"], "attr": {"T": {"type": "DT_FLOAT"}}}, {"name": "swa_model/Relu_23", "op": "Relu", "input": ["swa_model/mul_64"], "attr": {"T": {"type": "DT_FLOAT"}}}, {"name": "swa_model/Relu_25", "op": "Relu", "input": ["swa_model/mul_72"], "attr": {"T": {"type": "DT_FLOAT"}}}, {"name": "swa_model/Sum_4", "op": "Sum", "input": ["swa_model/Relu_23", "swa_model/Sum_4/reduction_indices"], "attr": {"keep_dims": {"b": true}, "T": {"type": "DT_FLOAT"}, "Tidx": {"type": "DT_INT32"}}}, {"name": "swa_model/Max_2", "op": "Max", "input": ["swa_model/Relu_23", "swa_model/Max_2/reduction_indices"], "attr": {"T": {"type": "DT_FLOAT"}, "keep_dims": {"b": true}, "Tidx": {"type": "DT_INT32"}}}, {"name": "swa_model/Conv2D_27", "op": "Conv2D", "input": ["swa_model/Relu_25", "swa_model/vownership/w"], "device": "/device:CPU:0", "attr": {"padding": {"s": "U0FNRQ=="}, "T": {"type": "DT_FLOAT"}, "strides": {"list": {"i": ["1", "1", "1", "1"]}}, "data_format": {"s": "TkhXQw=="}, "dilations": {"list": {"i": ["1", "1", "1", "1"]}}, "use_cudnn_on_gpu": {"b": true}, "explicit_paddings": {"list": {}}}}, {"name": "swa_model/Sum_5", "op": "Sum", "input": ["swa_model/Relu_25", "swa_model/Sum_5/reduction_indices"], "attr": {"T": {"type": "DT_FLOAT"}, "keep_dims": {"b": false}, "Tidx": {"type": "DT_INT32"}}}, {"name": "swa_model/truediv_4", "op": "RealDiv", "input": ["swa_model/Sum_4", "swa_model/Reshape_9"], "attr": {"T": {"type": "DT_FLOAT"}}}, {"name": "swa_model/mul_92", "op": "Mul", "input": ["swa_model/Conv2D_27", "swa_model/strided_slice_4"], "attr": {"T": {"type": "DT_FLOAT"}}}, {"name": "swa_model/truediv_6", "op": "RealDiv", "input": ["swa_model/Sum_5", "swa_model/Reshape_13"], "attr": {"T": {"type": "DT_FLOAT"}}}, {"name": "swa_model/mul_65", "op": "Mul", "input": ["swa_model/truediv_4", "swa_model/truediv_5"], "attr": {"T": {"type": "DT_FLOAT"}}}, {"name": "swa_model/cond_6/Switch_1", "op": "Switch", "input": ["swa_model/mul_92", "swa_model/strided_slice_11"], "attr": {"T": {"type": "DT_FLOAT"}}}, {"name": "swa_model/cond_6/transpose/Switch", "op": "Switch", "input": ["swa_model/mul_92", "swa_model/strided_slice_11"], "attr": {"T": {"type": "DT_FLOAT"}}}, {"name": "swa_model/mul_73", "op": "Mul", "input": ["swa_model/truediv_6", "swa_model/truediv_7"], "attr": {"T": {"type": "DT_FLOAT"}}}, {"name": "swa_model/mul_74", "op": "Mul", "input": ["swa_model/truediv_6", "swa_model/sub_7"], "attr": {"T": {"type": "DT_FLOAT"}}}, {"name": "swa_model/concat_2", "op": "ConcatV2", "input": ["swa_model/truediv_4", "swa_model/mul_65", "swa_model/Max_2", "swa_model/concat_2/axis"], "attr": {"N": {"i": "3"}, "T": {"type": "DT_FLOAT"}, "Tidx": {"type": "DT_INT32"}}}, {"name": "swa_model/cond_6/transpose", "op": "Transpose", "input": ["swa_model/cond_6/transpose/Switch:1", "swa_model/cond_6/transpose/perm"], "attr": {"T": {"type": "DT_FLOAT"}, "Tperm": {"type": "DT_INT32"}}}, {"name": "swa_model/concat_3", "op": "ConcatV2", "input": ["swa_model/truediv_6", "swa_model/mul_73", "swa_model/mul_74", "swa_model/concat_3/axis"], "attr": {"N": {"i": "3"}, "T": {"type": "DT_FLOAT"}, "Tidx": {"type": "DT_INT32"}}}, {"name": "swa_model/Tensordot_4/Shape", "op": "Shape", "input": ["swa_model/concat_2"], "attr": {"T": {"type": "DT_FLOAT"}, "out_type": {"type": "DT_INT32"}}, "experimentalType": {"typeId": "TFT_PRODUCT", "args": [{"typeId": "TFT_SHAPE_TENSOR", "args": [{"typeId": "TFT_INT32"}]}]}}, {"name": "swa_model/Tensordot_5/Shape", "op": "Shape", "input": ["swa_model/concat_2"], "attr": {"T": {"type": "DT_FLOAT"}, "out_type": {"type": "DT_INT32"}}, "experimentalType": {"typeId": "TFT_PRODUCT", "args": [{"typeId": "TFT_SHAPE_TENSOR", "args": [{"typeId": "TFT_INT32"}]}]}}, {"name": "swa_model/cond_6/Merge", "op": "Merge", "input": ["swa_model/cond_6/Switch_1", "swa_model/cond_6/transpose"], "attr": {"N": {"i": "2"}, "T": {"type": "DT_FLOAT"}}}, {"name": "swa_model/MatMul_1", "op": "MatMul", "input": ["swa_model/concat_3", "swa_model/v2/w"], "device": "/device:CPU:0", "attr": {"grad_b": {"b": false}, "grad_a": {"b": false}, "T": {"type": "DT_FLOAT"}, "transpose_b": {"b": false}, "transpose_a": {"b": false}}}, {"name": "swa_model/Tensordot_4/GatherV2_1", "op": "GatherV2", "input": ["swa_model/Tensordot_4/Shape", "swa_model/Tensordot_4/axes", "swa_model/Tensordot_4/GatherV2_1/axis"], "attr": {"Tindices": {"type": "DT_INT32"}, "batch_dims": {"i": "0"}, "Taxis": {"type": "DT_INT32"}, "Tparams": {"type": "DT_INT32"}}}, {"name": "swa_model/Tensordot_4/GatherV2", "op": "GatherV2", "input": ["swa_model/Tensordot_4/Shape", "swa_model/Tensordot_4/free", "swa_model/Tensordot_4/GatherV2/axis"], "attr": {"Tindices": {"type": "DT_INT32"}, "batch_dims": {"i": "0"}, "Taxis": {"type": "DT_INT32"}, "Tparams": {"type": "DT_INT32"}}}, {"name": "swa_model/Tensordot_5/GatherV2", "op": "GatherV2", "input": ["swa_model/Tensordot_5/Shape", "swa_model/Tensordot_5/free", "swa_model/Tensordot_5/GatherV2/axis"], "attr": {"Tindices": {"type": "DT_INT32"}, "batch_dims": {"i": "0"}, "Taxis": {"type": "DT_INT32"}, "Tparams": {"type": "DT_INT32"}}}, {"name": "swa_model/Tensordot_5/GatherV2_1", "op": "GatherV2", "input": ["swa_model/Tensordot_5/Shape", "swa_model/Tensordot_5/axes", "swa_model/Tensordot_5/GatherV2_1/axis"], "attr": {"Tindices": {"type": "DT_INT32"}, "batch_dims": {"i": "0"}, "Taxis": {"type": "DT_INT32"}, "Tparams": {"type": "DT_INT32"}}}, {"name": "swa_model/cond_7/Switch_1", "op": "Switch", "input": ["swa_model/cond_6/Merge", "swa_model/strided_slice_9"], "attr": {"T": {"type": "DT_FLOAT"}}}, {"name": "swa_model/cond_7/ReverseV2/Switch", "op": "Switch", "input": ["swa_model/cond_6/Merge", "swa_model/strided_slice_9"], "attr": {"T": {"type": "DT_FLOAT"}}}, {"name": "swa_model/add_51", "op": "AddV2", "input": ["swa_model/MatMul_1", "swa_model/v2/b"], "attr": {"T": {"type": "DT_FLOAT"}}}, {"name": "swa_model/Tensordot_4/Prod_1", "op": "Prod", "input": ["swa_model/Tensordot_4/GatherV2_1", "swa_model/Tensordot_4/Const_1"], "attr": {"T": {"type": "DT_INT32"}, "keep_dims": {"b": false}, "Tidx": {"type": "DT_INT32"}}}, {"name": "swa_model/Tensordot_4/Prod", "op": "Prod", "input": ["swa_model/Tensordot_4/GatherV2", "swa_model/Tensordot_4/Const"], "attr": {"keep_dims": {"b": false}, "T": {"type": "DT_INT32"}, "Tidx": {"type": "DT_INT32"}}}, {"name": "swa_model/Tensordot_4/concat_1", "op": "ConcatV2", "input": ["swa_model/Tensordot_4/GatherV2", "swa_model/Tensordot_4/Const_2", "swa_model/Tensordot_4/concat_1/axis"], "attr": {"N": {"i": "2"}, "T": {"type": "DT_INT32"}, "Tidx": {"type": "DT_INT32"}}}, {"name": "swa_model/Tensordot_5/Prod", "op": "Prod", "input": ["swa_model/Tensordot_5/GatherV2", "swa_model/Tensordot_5/Const"], "attr": {"T": {"type": "DT_INT32"}, "keep_dims": {"b": false}, "Tidx": {"type": "DT_INT32"}}}, {"name": "swa_model/Tensordot_5/Prod_1", "op": "Prod", "input": ["swa_model/Tensordot_5/GatherV2_1", "swa_model/Tensordot_5/Const_1"], "attr": {"keep_dims": {"b": false}, "T": {"type": "DT_INT32"}, "Tidx": {"type": "DT_INT32"}}}, {"name": "swa_model/cond_7/ReverseV2", "op": "ReverseV2", "input": ["swa_model/cond_7/ReverseV2/Switch:1", "swa_model/cond_7/ReverseV2/axis"], "attr": {"T": {"type": "DT_FLOAT"}, "Tidx": {"type": "DT_INT32"}}}, {"name": "swa_model/Relu_26", "op": "Relu", "input": ["swa_model/add_51"], "attr": {"T": {"type": "DT_FLOAT"}}}, {"name": "swa_model/Tensordot_4/stack", "op": "Pack", "input": ["swa_model/Tensordot_4/Prod", "swa_model/Tensordot_4/Prod_1"], "attr": {"N": {"i": "2"}, "T": {"type": "DT_INT32"}, "axis": {"i": "0"}}}, {"name": "swa_model/Tensordot_5/stack", "op": "Pack", "input": ["swa_model/Tensordot_5/Prod", "swa_model/Tensordot_5/Prod_1"], "attr": {"N": {"i": "2"}, "T": {"type": "DT_INT32"}, "axis": {"i": "0"}}}, {"name": "swa_model/cond_7/Merge", "op": "Merge", "input": ["swa_model/cond_7/Switch_1", "swa_model/cond_7/ReverseV2"], "attr": {"N": {"i": "2"}, "T": {"type": "DT_FLOAT"}}}, {"name": "swa_model/MatMul_3", "op": "MatMul", "input": ["swa_model/Relu_26", "swa_model/mv3/w"], "device": "/device:CPU:0", "attr": {"grad_b": {"b": false}, "grad_a": {"b": false}, "T": {"type": "DT_FLOAT"}, "transpose_b": {"b": false}, "transpose_a": {"b": false}}}, {"name": "swa_model/MatMul_2", "op": "MatMul", "input": ["swa_model/Relu_26", "swa_model/v3/w"], "device": "/device:CPU:0", "attr": {"grad_b": {"b": false}, "grad_a": {"b": false}, "T": {"type": "DT_FLOAT"}, "transpose_a": {"b": false}, "transpose_b": {"b": false}}}, {"name": "swa_model/Tensordot_4/Reshape", "op": "Reshape", "input": ["swa_model/concat_2", "swa_model/Tensordot_4/stack"], "attr": {"T": {"type": "DT_FLOAT"}, "Tshape": {"type": "DT_INT32"}}}, {"name": "swa_model/Tensordot_5/Reshape", "op": "Reshape", "input": ["swa_model/concat_2", "swa_model/Tensordot_5/stack"], "attr": {"T": {"type": "DT_FLOAT"}, "Tshape": {"type": "DT_INT32"}}}, {"name": "swa_model/cond_8/Switch_1", "op": "Switch", "input": ["swa_model/cond_7/Merge", "swa_model/strided_slice_10"], "attr": {"T": {"type": "DT_FLOAT"}}}, {"name": "swa_model/cond_8/ReverseV2/Switch", "op": "Switch", "input": ["swa_model/cond_7/Merge", "swa_model/strided_slice_10"], "attr": {"T": {"type": "DT_FLOAT"}}}, {"name": "swa_model/add_53", "op": "AddV2", "input": ["swa_model/MatMul_3", "swa_model/mv3/b"], "attr": {"T": {"type": "DT_FLOAT"}}}, {"name": "swa_model/add_52", "op": "AddV2", "input": ["swa_model/MatMul_2", "swa_model/v3/b"], "attr": {"T": {"type": "DT_FLOAT"}}}, {"name": "swa_model/Tensordot_4/MatMul", "op": "MatMul", "input": ["swa_model/Tensordot_4/Reshape", "swa_model/matmulg2w"], "device": "/device:CPU:0", "attr": {"grad_b": {"b": false}, "grad_a": {"b": false}, "T": {"type": "DT_FLOAT"}, "transpose_a": {"b": false}, "transpose_b": {"b": false}}}, {"name": "swa_model/Tensordot_5/MatMul", "op": "MatMul", "input": ["swa_model/Tensordot_5/Reshape", "swa_model/matmulpass"], "device": "/device:CPU:0", "attr": {"grad_b": {"b": false}, "grad_a": {"b": false}, "T": {"type": "DT_FLOAT"}, "transpose_a": {"b": false}, "transpose_b": {"b": false}}}, {"name": "swa_model/cond_8/ReverseV2", "op": "ReverseV2", "input": ["swa_model/cond_8/ReverseV2/Switch:1", "swa_model/cond_8/ReverseV2/axis"], "attr": {"T": {"type": "DT_FLOAT"}, "Tidx": {"type": "DT_INT32"}}}, {"name": "swa_model/miscvalues_output", "op": "Reshape", "input": ["swa_model/add_53", "swa_model/miscvalues_output/shape"], "attr": {"T": {"type": "DT_FLOAT"}, "Tshape": {"type": "DT_INT32"}}}, {"name": "swa_model/value_output", "op": "Reshape", "input": ["swa_model/add_52", "swa_model/value_output/shape"], "attr": {"T": {"type": "DT_FLOAT"}, "Tshape": {"type": "DT_INT32"}}}, {"name": "swa_model/Tensordot_4", "op": "Reshape", "input": ["swa_model/Tensordot_4/MatMul", "swa_model/Tensordot_4/concat_1"], "attr": {"T": {"type": "DT_FLOAT"}, "Tshape": {"type": "DT_INT32"}}}, {"name": "swa_model/Reshape_12", "op": "Reshape", "input": ["swa_model/Tensordot_5/MatMul", "swa_model/Reshape_12/shape"], "attr": {"T": {"type": "DT_FLOAT"}, "Tshape": {"type": "DT_INT32"}}}, {"name": "swa_model/cond_8/Merge", "op": "Merge", "input": ["swa_model/cond_8/Switch_1", "swa_model/cond_8/ReverseV2"], "attr": {"N": {"i": "2"}, "T": {"type": "DT_FLOAT"}}}, {"name": "swa_model/add_48", "op": "AddV2", "input": ["swa_model/p1/norm/beta", "swa_model/Tensordot_4"], "attr": {"T": {"type": "DT_FLOAT"}}}, {"name": "swa_model/ownership_output", "op": "Reshape", "input": ["swa_model/cond_8/Merge", "swa_model/ownership_output/shape"], "attr": {"T": {"type": "DT_FLOAT"}, "Tshape": {"type": "DT_INT32"}}}, {"name": "swa_model/add_49", "op": "AddV2", "input": ["swa_model/Conv2D_23", "swa_model/add_48"], "attr": {"T": {"type": "DT_FLOAT"}}}, {"name": "swa_model/mul_67", "op": "Mul", "input": ["swa_model/add_49", "swa_model/strided_slice_4"], "attr": {"T": {"type": "DT_FLOAT"}}}, {"name": "swa_model/Relu_24", "op": "Relu", "input": ["swa_model/mul_67"], "attr": {"T": {"type": "DT_FLOAT"}}}, {"name": "swa_model/Conv2D_25", "op": "Conv2D", "input": ["swa_model/Relu_24", "swa_model/p2/w"], "device": "/device:CPU:0", "attr": {"padding": {"s": "U0FNRQ=="}, "T": {"type": "DT_FLOAT"}, "strides": {"list": {"i": ["1", "1", "1", "1"]}}, "data_format": {"s": "TkhXQw=="}, "dilations": {"list": {"i": ["1", "1", "1", "1"]}}, "use_cudnn_on_gpu": {"b": true}, "explicit_paddings": {"list": {}}}}, {"name": "swa_model/sub_4", "op": "Sub", "input": ["swa_model/Conv2D_25", "swa_model/mul_69"], "attr": {"T": {"type": "DT_FLOAT"}}}, {"name": "swa_model/cond_3/Switch_1", "op": "Switch", "input": ["swa_model/sub_4", "swa_model/strided_slice_7"], "attr": {"T": {"type": "DT_FLOAT"}}}, {"name": "swa_model/cond_3/transpose/Switch", "op": "Switch", "input": ["swa_model/sub_4", "swa_model/strided_slice_7"], "attr": {"T": {"type": "DT_FLOAT"}}}, {"name": "swa_model/cond_3/transpose", "op": "Transpose", "input": ["swa_model/cond_3/transpose/Switch:1", "swa_model/cond_3/transpose/perm"], "attr": {"T": {"type": "DT_FLOAT"}, "Tperm": {"type": "DT_INT32"}}}, {"name": "swa_model/cond_3/Merge", "op": "Merge", "input": ["swa_model/cond_3/Switch_1", "swa_model/cond_3/transpose"], "attr": {"N": {"i": "2"}, "T": {"type": "DT_FLOAT"}}}, {"name": "swa_model/cond_4/Switch_1", "op": "Switch", "input": ["swa_model/cond_3/Merge", "swa_model/strided_slice_5"], "attr": {"T": {"type": "DT_FLOAT"}}}, {"name": "swa_model/cond_4/ReverseV2/Switch", "op": "Switch", "input": ["swa_model/cond_3/Merge", "swa_model/strided_slice_5"], "attr": {"T": {"type": "DT_FLOAT"}}}, {"name": "swa_model/cond_4/ReverseV2", "op": "ReverseV2", "input": ["swa_model/cond_4/ReverseV2/Switch:1", "swa_model/cond_4/ReverseV2/axis"], "attr": {"T": {"type": "DT_FLOAT"}, "Tidx": {"type": "DT_INT32"}}}, {"name": "swa_model/cond_4/Merge", "op": "Merge", "input": ["swa_model/cond_4/Switch_1", "swa_model/cond_4/ReverseV2"], "attr": {"N": {"i": "2"}, "T": {"type": "DT_FLOAT"}}}, {"name": "swa_model/cond_5/Switch_1", "op": "Switch", "input": ["swa_model/cond_4/Merge", "swa_model/strided_slice_6"], "attr": {"T": {"type": "DT_FLOAT"}}}, {"name": "swa_model/cond_5/ReverseV2/Switch", "op": "Switch", "input": ["swa_model/cond_4/Merge", "swa_model/strided_slice_6"], "attr": {"T": {"type": "DT_FLOAT"}}}, {"name": "swa_model/cond_5/ReverseV2", "op": "ReverseV2", "input": ["swa_model/cond_5/ReverseV2/Switch:1", "swa_model/cond_5/ReverseV2/axis"], "attr": {"T": {"type": "DT_FLOAT"}, "Tidx": {"type": "DT_INT32"}}}, {"name": "swa_model/cond_5/Merge", "op": "Merge", "input": ["swa_model/cond_5/Switch_1", "swa_model/cond_5/ReverseV2"], "attr": {"N": {"i": "2"}, "T": {"type": "DT_FLOAT"}}}, {"name": "swa_model/Reshape_11", "op": "Reshape", "input": ["swa_model/cond_5/Merge", "swa_model/Reshape_11/shape"], "attr": {"T": {"type": "DT_FLOAT"}, "Tshape": {"type": "DT_INT32"}}}, {"name": "swa_model/policy_output", "op": "ConcatV2", "input": ["swa_model/Reshape_11", "swa_model/Reshape_12", "swa_model/policy_output/axis"], "attr": {"N": {"i": "2"}, "T": {"type": "DT_FLOAT"}, "Tidx": {"type": "DT_INT32"}}}], "library": {}, "versions": {"producer": 2474}}, "weightsManifest": [{"paths": ["group1-shard1of3.bin", "group1-shard2of3.bin", "group1-shard3of3.bin"], "weights": [{"name": "swa_model/mv3/w", "shape": [80, 10], "dtype": "float32"}, {"name": "swa_model/mv3/b", "shape": [10], "dtype": "float32"}, {"name": "swa_model/miscvalues_output/shape", "shape": [2], "dtype": "int32"}, {"name": "swa_model/vownership/w", "shape": [1, 1, 32, 1], "dtype": "float32"}, {"name": "swa_model/strided_slice_11", "shape": [], "dtype": "bool"}, {"name": "swa_model/strided_slice_9", "shape": [], "dtype": "bool"}, {"name": "swa_model/strided_slice_10", "shape": [], "dtype": "bool"}, {"name": "swa_model/ownership_output/shape", "shape": [3], "dtype": "int32"}, {"name": "swa_model/p1/intermediate_conv/w", "shape": [1, 1, 128, 32], "dtype": "float32"}, {"name": "swa_model/p1/norm/beta", "shape": [32], "dtype": "float32"}, {"name": "swa_model/Tensordot_4/Const", "shape": [1], "dtype": "int32"}, {"name": "swa_model/Tensordot_4/axes", "shape": [1], "dtype": "int32"}, {"name": "swa_model/Tensordot_4/GatherV2_1/axis", "shape": [], "dtype": "int32"}, {"name": "swa_model/Tensordot_4/Const_1", "shape": [1], "dtype": "int32"}, {"name": "swa_model/matmulg2w", "shape": [96, 32], "dtype": "float32"}, {"name": "swa_model/Tensordot_4/free", "shape": [3], "dtype": "int32"}, {"name": "swa_model/Tensordot_4/GatherV2/axis", "shape": [], "dtype": "int32"}, {"name": "swa_model/Tensordot_4/Const_2", "shape": [1], "dtype": "int32"}, {"name": "swa_model/Tensordot_4/concat_1/axis", "shape": [], "dtype": "int32"}, {"name": "swa_model/p2/w", "shape": [1, 1, 32, 2], "dtype": "float32"}, {"name": "swa_model/sub_3/x", "shape": [], "dtype": "float32"}, {"name": "swa_model/mul_69/y", "shape": [], "dtype": "float32"}, {"name": "swa_model/strided_slice_7", "shape": [], "dtype": "bool"}, {"name": "swa_model/strided_slice_5", "shape": [], "dtype": "bool"}, {"name": "swa_model/strided_slice_6", "shape": [], "dtype": "bool"}, {"name": "swa_model/Reshape_11/shape", "shape": [3], "dtype": "int32"}, {"name": "swa_model/Tensordot_5/free", "shape": [3], "dtype": "int32"}, {"name": "swa_model/Tensordot_5/GatherV2/axis", "shape": [], "dtype": "int32"}, {"name": "swa_model/Tensordot_5/Const", "shape": [1], "dtype": "int32"}, {"name": "swa_model/Sum_4/reduction_indices", "shape": [2], "dtype": "int32"}, {"name": "swa_model/Reshape_9/shape", "shape": [4], "dtype": "int32"}, {"name": "swa_model/Reshape_10/shape", "shape": [4], "dtype": "int32"}, {"name": "swa_model/sub_2/y", "shape": [], "dtype": "float32"}, {"name": "ConstantFolding/swa_model/truediv_5_recip", "shape": [], "dtype": "float32"}, {"name": "swa_model/g1/w", "shape": [1, 1, 128, 32], "dtype": "float32"}, {"name": "swa_model/g1/norm/beta", "shape": [32], "dtype": "float32"}, {"name": "swa_model/Max_2/reduction_indices", "shape": [2], "dtype": "int32"}, {"name": "swa_model/concat_2/axis", "shape": [], "dtype": "int32"}, {"name": "swa_model/Tensordot_5/axes", "shape": [1], "dtype": "int32"}, {"name": "swa_model/Tensordot_5/GatherV2_1/axis", "shape": [], "dtype": "int32"}, {"name": "swa_model/Tensordot_5/Const_1", "shape": [1], "dtype": "int32"}, {"name": "swa_model/matmulpass", "shape": [96, 2], "dtype": "float32"}, {"name": "swa_model/Reshape_12/shape", "shape": [3], "dtype": "int32"}, {"name": "swa_model/policy_output/axis", "shape": [], "dtype": "int32"}, {"name": "swa_model/sub_5/y", "shape": [], "dtype": "float32"}, {"name": "ConstantFolding/swa_model/truediv_7_recip", "shape": [], "dtype": "float32"}, {"name": "swa_model/trunk/norm/beta", "shape": [128], "dtype": "float32"}, {"name": "swa_model/rconv8/w1a", "shape": [3, 3, 128, 96], "dtype": "float32"}, {"name": "swa_model/Tensordot_3/Const", "shape": [1], "dtype": "int32"}, {"name": "swa_model/Tensordot_3/axes", "shape": [1], "dtype": "int32"}, {"name": "swa_model/Tensordot_3/GatherV2_1/axis", "shape": [], "dtype": "int32"}, {"name": "swa_model/Tensordot_3/Const_1", "shape": [1], "dtype": "int32"}, {"name": "swa_model/rconv8/w1r", "shape": [96, 96], "dtype": "float32"}, {"name": "swa_model/Sum_3/reduction_indices", "shape": [2], "dtype": "int32"}, {"name": "swa_model/Reshape_7/shape", "shape": [4], "dtype": "int32"}, {"name": "swa_model/Reshape_8/shape", "shape": [4], "dtype": "int32"}, {"name": "swa_model/sub_1/y", "shape": [], "dtype": "float32"}, {"name": "ConstantFolding/swa_model/truediv_3_recip", "shape": [], "dtype": "float32"}, {"name": "swa_model/rconv5/w1a", "shape": [3, 3, 128, 96], "dtype": "float32"}, {"name": "swa_model/Tensordot_2/Const", "shape": [1], "dtype": "int32"}, {"name": "swa_model/Tensordot_2/axes", "shape": [1], "dtype": "int32"}, {"name": "swa_model/Tensordot_2/GatherV2_1/axis", "shape": [], "dtype": "int32"}, {"name": "swa_model/Tensordot_2/Const_1", "shape": [1], "dtype": "int32"}, {"name": "swa_model/rconv5/w1r", "shape": [96, 96], "dtype": "float32"}, {"name": "swa_model/Sum_2/reduction_indices", "shape": [2], "dtype": "int32"}, {"name": "swa_model/Reshape_5/shape", "shape": [4], "dtype": "int32"}, {"name": "swa_model/Reshape_6/shape", "shape": [4], "dtype": "int32"}, {"name": "swa_model/sub/y", "shape": [], "dtype": "float32"}, {"name": "ConstantFolding/swa_model/truediv_1_recip", "shape": [], "dtype": "float32"}, {"name": "swa_model/conv1/w", "shape": [5, 5, 22, 128], "dtype": "float32"}, {"name": "swa_model/Tensordot_1/free", "shape": [1], "dtype": "int32"}, {"name": "swa_model/Tensordot_1/GatherV2/axis", "shape": [], "dtype": "int32"}, {"name": "swa_model/Tensordot_1/Const", "shape": [1], "dtype": "int32"}, {"name": "swa_model/PadV2", "shape": [1, 19], "dtype": "float32"}, {"name": "swa_model/Tensordot_1/axes", "shape": [1], "dtype": "int32"}, {"name": "swa_model/Tensordot_1/GatherV2_1/axis", "shape": [], "dtype": "int32"}, {"name": "swa_model/Tensordot_1/Const_1", "shape": [1], "dtype": "int32"}, {"name": "swa_model/ginputw", "shape": [19, 128], "dtype": "float32"}, {"name": "swa_model/Reshape_4/shape", "shape": [4], "dtype": "int32"}, {"name": "swa_model/rconv1/norm1/beta", "shape": [128], "dtype": "float32"}, {"name": "swa_model/Conv2D_1/merged_input", "shape": [3, 3, 128, 128], "dtype": "float32"}, {"name": "swa_model/rconv1/norm2/beta", "shape": [128], "dtype": "float32"}, {"name": "swa_model/rconv1/w2", "shape": [3, 3, 128, 128], "dtype": "float32"}, {"name": "swa_model/rconv2/norm1/beta", "shape": [128], "dtype": "float32"}, {"name": "swa_model/Conv2D_3/merged_input", "shape": [3, 3, 128, 128], "dtype": "float32"}, {"name": "swa_model/rconv2/norm2/beta", "shape": [128], "dtype": "float32"}, {"name": "swa_model/rconv2/w2", "shape": [3, 3, 128, 128], "dtype": "float32"}, {"name": "swa_model/rconv3/norm1/beta", "shape": [128], "dtype": "float32"}, {"name": "swa_model/Conv2D_5/merged_input", "shape": [3, 3, 128, 128], "dtype": "float32"}, {"name": "swa_model/rconv3/norm2/beta", "shape": [128], "dtype": "float32"}, {"name": "swa_model/rconv3/w2", "shape": [3, 3, 128, 128], "dtype": "float32"}, {"name": "swa_model/rconv4/norm1/beta", "shape": [128], "dtype": "float32"}, {"name": "swa_model/Conv2D_7/merged_input", "shape": [3, 3, 128, 128], "dtype": "float32"}, {"name": "swa_model/rconv4/norm2/beta", "shape": [128], "dtype": "float32"}, {"name": "swa_model/rconv4/w2", "shape": [3, 3, 128, 128], "dtype": "float32"}, {"name": "swa_model/rconv5/norm1/beta", "shape": [128], "dtype": "float32"}, {"name": "swa_model/rconv5/w1b", "shape": [3, 3, 128, 32], "dtype": "float32"}, {"name": "swa_model/rconv5/norm1b/beta", "shape": [32], "dtype": "float32"}, {"name": "swa_model/Max/reduction_indices", "shape": [2], "dtype": "int32"}, {"name": "swa_model/concat/axis", "shape": [], "dtype": "int32"}, {"name": "swa_model/Tensordot_2/free", "shape": [3], "dtype": "int32"}, {"name": "swa_model/Tensordot_2/GatherV2/axis", "shape": [], "dtype": "int32"}, {"name": "swa_model/Tensordot_2/Const_2", "shape": [1], "dtype": "int32"}, {"name": "swa_model/Tensordot_2/concat_1/axis", "shape": [], "dtype": "int32"}, {"name": "swa_model/rconv5/norm2/gamma", "shape": [96], "dtype": "float32"}, {"name": "swa_model/rconv5/norm2/beta", "shape": [96], "dtype": "float32"}, {"name": "swa_model/rconv5/w2", "shape": [3, 3, 96, 128], "dtype": "float32"}, {"name": "swa_model/rconv6/norm1/beta", "shape": [128], "dtype": "float32"}, {"name": "swa_model/Conv2D_12/merged_input", "shape": [3, 3, 128, 128], "dtype": "float32"}, {"name": "swa_model/rconv6/norm2/beta", "shape": [128], "dtype": "float32"}, {"name": "swa_model/rconv6/w2", "shape": [3, 3, 128, 128], "dtype": "float32"}, {"name": "swa_model/rconv7/norm1/beta", "shape": [128], "dtype": "float32"}, {"name": "swa_model/Conv2D_14/merged_input", "shape": [3, 3, 128, 128], "dtype": "float32"}, {"name": "swa_model/rconv7/norm2/beta", "shape": [128], "dtype": "float32"}, {"name": "swa_model/rconv7/w2", "shape": [3, 3, 128, 128], "dtype": "float32"}, {"name": "swa_model/rconv8/norm1/beta", "shape": [128], "dtype": "float32"}, {"name": "swa_model/rconv8/w1b", "shape": [3, 3, 128, 32], "dtype": "float32"}, {"name": "swa_model/rconv8/norm1b/beta", "shape": [32], "dtype": "float32"}, {"name": "swa_model/Max_1/reduction_indices", "shape": [2], "dtype": "int32"}, {"name": "swa_model/concat_1/axis", "shape": [], "dtype": "int32"}, {"name": "swa_model/Tensordot_3/free", "shape": [3], "dtype": "int32"}, {"name": "swa_model/Tensordot_3/GatherV2/axis", "shape": [], "dtype": "int32"}, {"name": "swa_model/Tensordot_3/Const_2", "shape": [1], "dtype": "int32"}, {"name": "swa_model/Tensordot_3/concat_1/axis", "shape": [], "dtype": "int32"}, {"name": "swa_model/rconv8/norm2/gamma", "shape": [96], "dtype": "float32"}, {"name": "swa_model/rconv8/norm2/beta", "shape": [96], "dtype": "float32"}, {"name": "swa_model/rconv8/w2", "shape": [3, 3, 96, 128], "dtype": "float32"}, {"name": "swa_model/rconv9/norm1/beta", "shape": [128], "dtype": "float32"}, {"name": "swa_model/Conv2D_19/merged_input", "shape": [3, 3, 128, 128], "dtype": "float32"}, {"name": "swa_model/rconv9/norm2/beta", "shape": [128], "dtype": "float32"}, {"name": "swa_model/rconv9/w2", "shape": [3, 3, 128, 128], "dtype": "float32"}, {"name": "swa_model/rconv10/norm1/beta", "shape": [128], "dtype": "float32"}, {"name": "swa_model/Conv2D_21/merged_input", "shape": [3, 3, 128, 128], "dtype": "float32"}, {"name": "swa_model/rconv10/norm2/beta", "shape": [128], "dtype": "float32"}, {"name": "swa_model/rconv10/w2", "shape": [3, 3, 128, 128], "dtype": "float32"}, {"name": "swa_model/v1/w", "shape": [1, 1, 128, 32], "dtype": "float32"}, {"name": "swa_model/v1/norm/beta", "shape": [32], "dtype": "float32"}, {"name": "swa_model/Sum_5/reduction_indices", "shape": [2], "dtype": "int32"}, {"name": "swa_model/Reshape_13/shape", "shape": [2], "dtype": "int32"}, {"name": "swa_model/Reshape/shape", "shape": [4], "dtype": "int32"}, {"name": "swa_model/strided_slice_1", "shape": [], "dtype": "bool"}, {"name": "swa_model/strided_slice_2", "shape": [], "dtype": "bool"}, {"name": "swa_model/strided_slice_3", "shape": [], "dtype": "bool"}, {"name": "swa_model/Reshape_2/shape", "shape": [3], "dtype": "int32"}, {"name": "swa_model/add", "shape": [1, 22, 22], "dtype": "float32"}, {"name": "swa_model/Reshape_3/shape", "shape": [4], "dtype": "int32"}, {"name": "swa_model/strided_slice_4/stack", "shape": [4], "dtype": "int32"}, {"name": "swa_model/strided_slice_4/stack_1", "shape": [4], "dtype": "int32"}, {"name": "swa_model/strided_slice_4/stack_2", "shape": [4], "dtype": "int32"}, {"name": "swa_model/Sum_1/reduction_indices", "shape": [3], "dtype": "int32"}, {"name": "swa_model/Reshape_14/shape", "shape": [2], "dtype": "int32"}, {"name": "swa_model/sub_6/y", "shape": [], "dtype": "float32"}, {"name": "ConstantFolding/swa_model/truediv_8_recip", "shape": [], "dtype": "float32"}, {"name": "swa_model/sub_7/y", "shape": [], "dtype": "float32"}, {"name": "swa_model/concat_3/axis", "shape": [], "dtype": "int32"}, {"name": "swa_model/v2/w", "shape": [96, 80], "dtype": "float32"}, {"name": "swa_model/v2/b", "shape": [80], "dtype": "float32"}, {"name": "swa_model/v3/w", "shape": [80, 3], "dtype": "float32"}, {"name": "swa_model/v3/b", "shape": [3], "dtype": "float32"}, {"name": "swa_model/value_output/shape", "shape": [2], "dtype": "int32"}, {"name": "swa_model/cond_6/transpose/perm", "shape": [4], "dtype": "int32"}, {"name": "swa_model/cond_7/ReverseV2/axis", "shape": [1], "dtype": "int32"}, {"name": "swa_model/cond_8/ReverseV2/axis", "shape": [1], "dtype": "int32"}, {"name": "swa_model/cond_3/transpose/perm", "shape": [4], "dtype": "int32"}, {"name": "swa_model/cond_4/ReverseV2/axis", "shape": [1], "dtype": "int32"}, {"name": "swa_model/cond_5/ReverseV2/axis", "shape": [1], "dtype": "int32"}, {"name": "swa_model/cond/ReverseV2/axis", "shape": [1], "dtype": "int32"}, {"name": "swa_model/cond_1/ReverseV2/axis", "shape": [1], "dtype": "int32"}, {"name": "swa_model/cond_2/transpose/perm", "shape": [4], "dtype": "int32"}]}]}